model_ncf.bin (torch, 645203 bytes, 6 tensors)

embedding.weight f4 [9992, 16]
000000 c8 83 b1 bb 26 41 95 3d de a7 8b bd 1a 3a 02 3f
       -0.005417321 0.07287817 -0.068191275 0.50869906
000010 b8 40 c4 3e f7 be 22 38 05 e0 db 3e f9 87 ae 3e
       0.38330626 3.880166e-05 0.4294435 0.34088114
000020 f9 30 a9 be 70 26 d4 3c 18 56 df 3a 2d 83 be 3e
       -0.33045176 0.025897235 0.0017039208 0.37209454
000030 8e 0f 8a bd a0 ea 14 3e 7d ba ed bc 5b 60 35 3e
       -0.06741248 0.14542627 -0.029019589 0.17712538
000040 5d 88 8a be 63 a3 d0 bc f5 67 04 bd 97 8d 93 3d
       -0.27057162 -0.025468534 -0.032325704 0.072047405
000050 5f 2d 62 bd d1 52 9e 3c 89 6b b2 3e a5 e2 73 bc
       -0.05521905 0.0193266 0.34847668 -0.014885579
000060 5e 95 9c 3e d6 38 db 3c 32 d2 c2 3d 31 31 49 3e
       0.30582708 0.0267605 0.09512748 0.19647671
000070 8a 87 ba 3e 0c d6 8b 3c 70 55 db 3b 04 6e 3a 3d
       0.36431533 0.017069839 0.0066935346 0.045515075
000080 f1 4d 09 bf fc 20 16 3d 98 d4 c7 bd e7 c5 57 bd
       -0.53634554 0.03665255 -0.09757346 -0.05267897
000090 e6 43 d5 3d 7b 7f b0 3d 87 c4 76 3b 91 49 36 bd
       0.10413341 0.08618065 0.003765376 -0.044503752
0000a0 f8 fb de 3e 90 2f f7 bc 11 75 a3 3d b3 7a 01 3e
       0.43551612 -0.030174047 0.07981313 0.12644462
0000b0 e1 01 5c bd fa 0e 52 bd dc 03 78 bd 3a 45 9a 3d
       -0.05371273 -0.051283814 -0.060550556 0.07532735
0000c0 ec 62 be bd b8 3e e1 3c 38 2e cf 3c d1 21 92 bd
       -0.092962116 0.027495727 0.025290594 -0.07135356
0000d0 66 ea 37 bc 0b 0c 53 3d 7d cf cb 3d 5d ad ac bc
       -0.011225319 0.051525157 0.099516846 -0.02107876
0000e0 d7 53 be 3e d4 f2 85 bd ea 49 44 bb bb e5 0c be
       0.3717334 -0.065404564 -0.0029951283 -0.1375951
0000f0 8a 06 ee bd b4 d3 22 3d a4 a8 5f 3d e2 87 a5 bd
       -0.11622341 0.039752677 0.054604188 -0.08082558
000100 61 84 eb bd 3d 6c 5b 3d 24 88 f2 bd 18 45 60 be
       -0.11499859 0.05357002 -0.11842373 -0.21901357
000110 fb ad 60 3e 39 8b 3f 3d fd ea 0d 3e 35 25 fc 3e
       0.21941368 0.046763632 0.13859172 0.49247137
000120 e8 02 86 3e b0 e2 a6 bd 71 23 2f bc 10 61 29 be
       0.26174092 -0.08148706 -0.010689602 -0.16540933
000130 be fd 84 3e f6 42 db 3d 0d 48 5e 3d 15 78 9e 3d
       0.2597484 0.10706131 0.05426793 0.077377476
000140 c4 39 1f bd 3b 9d 53 bd c7 fd d8 bd 43 b1 c8 3e
       -0.03887345 -0.05166362 -0.10595279 0.3919774
000150 97 03 9b bd ca dc 03 3e 24 97 aa be 8f 41 8b 3e
       -0.07569044 0.12877193 -0.33318436 0.27198455
000160 2e b0 27 be d4 22 ea bb 42 33 ef 3c 57 18 31 3e
       -0.16375801 -0.007145265 0.029199246 0.17294441
000170 ae 3e ff bd 93 8d 15 be be f0 33 bd ec 7c ed 3c
       -0.12463127 -0.14604788 -0.04393076 0.028990231
000180 90 48 bc be d8 92 c5 3b 97 8b 9b bd be ac 02 3e
       -0.3677411 0.006029468 -0.07594984 0.12761208
000190 a9 7b 79 be 4c 64 3f 3d 11 a6 b3 bd 02 65 22 3d
       -0.24363579 0.04672651 -0.08771909 0.03964711
0001a0 54 bd 3f 3e 93 3c 6a 3c f4 cf 8d 3c 88 d1 54 3e
       0.18724567 0.014296669 0.017311074 0.20783055
0001b0 68 48 91 3d 06 18 c6 3c 04 2e 3d bd 8d 27 bc 3c
       0.070938885 0.024181377 -0.046186462 0.022968078
0001c0 b4 b5 57 be 65 bb 0f 3d 65 1c 21 bd 5a 0a 2e 3e
       -0.21065408 0.035090823 -0.03933372 0.16996136
0001d0 fd 22 50 3e 9d 96 7b bc 98 8f 65 be 6d e6 c4 3d
       0.20325847 -0.015355733 -0.22418058 0.09614263
0001e0 b3 94 da 3e e5 da fe 3b 5f 40 ee 3b 98 eb 42 3e
       0.42691574 0.007777559 0.007270857 0.19035184
0001f0 69 98 2a 3d 3b 01 0a 3e fd e6 25 bd 0c bb 2f 3e
       0.041649256 0.13477032 -0.04050349 0.17161196
000200 a0 67 ac be a0 7d b8 3c ea 2a d7 bc 17 a5 00 bd
       -0.3367281 0.02252084 -0.02626558 -0.031407442
000210 94 9e 7b bc 1a cc df 3c 0a cb bc be 3f 40 2b 3e
       -0.015357632 0.027319003 -0.36873657 0.16723727
000220 69 cf d9 3e 16 7a 11 3b b3 2f 11 bd 69 3a 76 be
       0.42541054 0.0022198013 -0.03544588 -0.24045719
000230 fc 1d e2 3d 98 9b a1 3c f3 e7 9d ba 76 d1 f2 3c
       0.11040875 0.019727513 -0.0012047276 0.029640894
000240 2e dc 34 bf c0 e0 c0 3d bc 79 f3 3c de 5e 44 3e
       -0.7064847 0.09417868 0.029721133 0.19176814
000250 05 1d c0 3c a7 11 a7 3c ac bd 1b bd 47 dd 2c 3e
       0.023451338 0.02039416 -0.038022682 0.16881286
000260 5f bf b7 3c d6 ab 08 3d ce 78 c6 bd 65 14 cf 3c
       0.02243012 0.033367 -0.096910104 0.02527828
000270 7a 6f bc bc fd fd d2 3d e1 11 80 3c f1 e7 8a bc
       -0.023002375 0.10302351 0.015633525 -0.016956301
000280 e9 c8 0d be e4 04 e0 bd 44 e1 f4 3d df 2b 57 3e
       -0.13846172 -0.10938433 0.119570285 0.21012829
000290 26 0e 07 3e fb 75 b6 bd d5 a0 a7 3e 7b 10 fd 3e
       0.13188991 -0.08909222 0.32739893 0.49426636
0002a0 10 02 19 bd f5 f6 21 3d 67 c1 1a 3d 9e 68 e6 3e
       -0.037355483 0.039542157 0.0377821 0.45001692
0002b0 a2 45 7d 3e 45 e7 54 3d fe 31 88 3d d1 c0 f9 bc
       0.24733594 0.05197837 0.0665016 -0.03048745
0002c0 cf d3 11 3d 1c b7 f6 bb 32 bf 5b 3c f3 57 a4 be
       0.035602387 -0.0075291526 0.013412284 -0.3209835
0002d0 3c 17 e9 bc db 49 6a bc dc f4 2a 3d 9c b8 57 bd
       -0.028453462 -0.014299835 0.041737422 -0.05266629
0002e0 eb 19 ea 3e 1d 95 5e 3d 15 95 71 3c 97 b8 3a 3c
       0.457229 0.054341424 0.014745017 0.011396549
0002f0 c8 6f 88 3d e8 4f fa bc 1c 0b 87 bc 52 cc ce bc
       0.066619456 -0.03055568 -0.01648479 -0.025243912
000300 15 38 8a 3e b6 68 90 3c 5a 76 32 bc 3d 3e 12 3e
       0.26995912 0.017628055 -0.010892475 0.14281555
000310 1b 6f bc bd c8 99 0a bd 02 04 d2 3d d2 9b 56 3e
       -0.09200879 -0.033838063 0.10254671 0.20957878
000320 de 66 8d 3e 5b 4b a7 3b eb a9 69 bd 3f 67 a4 3e
       0.27617544 0.0051054186 -0.057046812 0.3211002
000330 83 ff e3 3d 81 95 b9 3d a4 7c cb 3b f9 6f 18 bd
       0.11132719 0.09061719 0.0062099267 -0.03721616
000340 8c 7c df 3c ae 9f 40 bd 33 3e 0b bd 62 46 f2 3d
       0.027281068 -0.047027282 -0.033994865 0.11829831
000350 5e 23 1d 3d 7d a4 8c 3d b4 65 7f bd ec 42 2f be
       0.038363807 0.06867311 -0.06235285 -0.17115372
000360 ff 93 5e 3e 2e e7 5b 3d 62 e3 ef 3c 81 e5 c4 3d
       0.21736144 0.053687267 0.02928323 0.09614087
000370 58 dc 39 3e 5d 7b e0 bd 56 83 df bd 43 c1 91 3d
       0.1815046 -0.1096103 -0.10913722 0.0711694
000380 c9 b8 04 be 4e dc 1e 3d b7 99 4c bd cf f4 4e be
       -0.12961115 0.038784318 -0.04995128 -0.20210575
000390 d3 67 9c be a4 0a d0 bc e9 c8 3d be b3 37 83 be
       -0.30547962 -0.025395699 -0.18533672 -0.25628433
0003a0 cd a8 00 3f 0e 2f 7d bd 1c 03 48 bd bc 1f 98 3e
       0.5025757 -0.061812453 -0.04883109 0.2971171
0003b0 02 de 77 3c 3f 61 b9 3d d3 57 23 bd 3d b3 22 bd
       0.015128614 0.09051751 -0.039878678 -0.039721716
0003c0 1b c2 ad 3b e1 b9 e1 bd ef 7b 9f 3b ae ad ce 3e
       0.00530268 -0.11021782 0.004867069 0.40366882
0003d0 36 8d 7c be 15 0f 39 3d 04 da ab be 68 51 55 3e
       -0.24663243 0.0451804 -0.3356477 0.20831835
0003e0 bc f2 b8 bd 54 eb 5e bd c0 5d d8 3c bf 19 e1 3d
       -0.09030673 -0.054423645 0.026411891 0.10991239
0003f0 c2 29 d0 3c 75 c3 fb bd b9 db 7a bb 60 27 9f bd
       0.025410537 -0.1229314 -0.0038277938 -0.07771182

sequential.mlp.0.weight f4 [16, 32]
000000 1f 1c e8 be 96 d2 63 3d f7 aa 2f be 08 58 98 bd
       -0.45333955 0.055620752 -0.17155062 -0.07438666
000010 fe 5d 27 3b d1 2a 03 3d 4e 27 26 3e 6f 90 05 3e
       0.0025538201 0.032023255 0.16225931 0.13043378
000020 fe bd 54 be 4f 4b 14 be 5d 5c 8d 3d 90 a3 ad be
       -0.20775601 -0.14481853 0.069023825 -0.3391385
000030 ce 7d 46 bf 7c af b4 3c d5 64 0a be 63 41 1d bd
       -0.7753571 0.022056334 -0.13515027 -0.038392436
000040 e7 43 08 3f 66 d4 e6 bd a7 04 fa 3d 47 f4 b1 3e
       0.5322861 -0.112709805 0.122079186 0.3475668
000050 bc 2f d3 bd a2 1e d7 bd 98 93 95 bd 6b e2 45 be
       -0.10311839 -0.105038896 -0.07303542 -0.19324653
000060 47 38 b5 be 37 c4 a7 3d 87 99 fd 3b 11 dd bb 3e
       -0.353945 0.08191722 0.007739249 0.36692098
000070 a7 97 16 3e a2 be 13 3c 22 09 a4 bd 9b c0 7d be
       0.14706288 0.009017618 -0.080095544 -0.24780504
000080 4f 67 a6 3e 4f ee 55 3d 8a 1c b4 3a 82 41 a0 bd
       0.32500693 0.052229222 0.0013741415 -0.078249946
000090 9c 1b 32 3e 24 6a 82 3c e2 a0 9a 3d 41 c2 f2 3e
       0.17393345 0.015919752 0.07550217 0.4741383
0000a0 9b d0 01 be 76 86 f8 3c f5 95 07 bc 2b 48 89 bb
       -0.12677233 0.030337553 -0.008275499 -0.0041895113
0000b0 cc c3 8c 3f dd 9f 05 be b7 65 6d bd 6a ab 01 bd
       1.0997252 -0.13049264 -0.05795833 -0.031657614
0000c0 13 6e 2c be f5 db b9 3c 34 f3 66 3c e3 3e 3e bf
       -0.16838865 0.022687891 0.01409607 -0.7431471
0000d0 a5 fb 97 3d 10 83 1a 3d ab 92 e1 3d d0 3c c8 bc
       0.07421044 0.037722647 0.11014303 -0.02444306
0000e0 a4 aa 6f 3f 7b b7 07 bd 46 8f fd 3c eb d1 a5 be
       0.9361975 -0.033133965 0.030952107 -0.32386717
0000f0 d3 67 f2 be ce 4f 01 be 0e 39 26 bd 8b 84 83 3d
       -0.47344837 -0.126281 -0.040581755 0.06421765
000100 51 a0 c8 be fd 43 51 3e a6 c2 66 3d 08 03 b9 3e
       -0.39184812 0.20436092 0.056337975 0.36135125
000110 e0 8c ff bc 96 fb 40 bc 90 34 92 3c f3 59 fb 3e
       -0.031195104 -0.011778733 0.01784733 0.49092063
000120 7b fe 58 be 8d c0 19 bd 49 2d 70 bd 2a 0d b4 bd
       -0.21190827 -0.037537146 -0.058636937 -0.08791573
000130 f7 54 69 bf d2 23 41 3d ce a1 a5 3d b5 77 41 bd
       -0.9114527 0.0471533 0.080875024 -0.047233302
000140 d8 16 5d 3f 2f 4f 39 bd a7 ce 30 bd ae db 0b be
       0.8636298 -0.04524153 -0.04316583 -0.1365802
000150 df f0 b3 bc 3f 64 40 3b a5 b6 d8 3c 17 ee 33 be
       -0.021965442 0.0029356626 0.02645428 -0.17571293
000160 9b 6d ff be 86 f6 87 3c 3e 20 66 3d 88 aa 9a 3e
       -0.4988831 0.016597044 0.056183092 0.3020823
000170 96 af 72 bc b2 8c 94 3d 72 be 00 3e 2c 53 d4 bd
       -0.014812371 0.07253398 0.12572649 -0.10367426
000180 64 0a ea be 87 7f 00 be da 23 97 3d cb 44 26 be
       -0.45711052 -0.12548648 0.07379885 -0.1623718
000190 46 dd f2 3d 76 93 c1 bc 54 bd dc 3d 11 bf 82 3e
       0.11858611 -0.023629885 0.10778299 0.25536397
0001a0 ac cb 0b be 2b 0d 09 3e f0 21 83 bd d1 b8 f0 bd
       -0.13651913 0.1338393 -0.064029574 -0.11754001
0001b0 65 51 41 bf 95 19 3d be f9 83 6e bd bf eb d7 3d
       -0.75514823 -0.1846679 -0.058231328 0.10543012
0001c0 ea 2b 29 3f 74 f9 68 3d 2c ff 66 3d f1 b2 93 3e
       0.6608263 0.056878522 0.056395695 0.2884746
0001d0 ab db f4 bc 32 71 ed bd 34 55 46 be 1e 24 08 be
       -0.029889902 -0.11593856 -0.1936844 -0.13295028
0001e0 4b 7f 8e be 79 ab 84 bd 41 28 53 bd 7e 4d d3 3e
       -0.27831492 -0.06478018 -0.05155206 0.4127006
0001f0 ae 18 02 3e 87 f9 b9 3b 45 6f 54 3d 78 d8 fb bb
       0.12704727 0.005675498 0.051863927 -0.007685717
000200 a5 63 c6 be 2c f8 28 bd cf fe 05 be de ce f2 3d
       -0.38747898 -0.0412523 -0.13085483 0.11855863
000210 39 3a 01 be d3 d3 3f 3d 44 d2 9b 3d 2e b2 0b 3e
       -0.12619866 0.04683287 0.07608464 0.13642189
000220 ee 5a bf be b1 a1 c8 3c e3 f6 ef bc cc 3f 00 bd
       -0.3737406 0.024491163 -0.02929253 -0.03131084
000230 b6 a3 7e bf cb 48 82 3b 4c 9a a9 3c c6 8d 29 3d
       -0.99468553 0.0039759628 0.020703457 0.04139497
000240 d5 c1 18 3f 77 30 f5 bd 4b 03 36 3c a3 68 84 3d
       0.59670764 -0.119721346 0.011109184 0.0646527
000250 21 5c 53 be 4b 75 c0 3d 19 e4 45 3e aa 9f b9 b9
       -0.20640613 0.09397372 0.19325294 -0.0003540491
000260 25 13 03 bf 75 38 0a be 87 6c 2e 3e 8a c2 ac 3e
       -0.5120109 -0.13498099 0.17033587 0.33742172
000270 5c d5 0c 3e f6 99 86 be a6 3d c8 3d b8 f9 b3 bd
       0.13753265 -0.26289338 0.097773835 -0.087878644
000280 78 27 32 bf ee d9 c1 bb a8 8d e2 ba 83 f4 86 3e
       -0.69591475 -0.005915872 -0.0017284648 0.26358423
000290 0d aa 53 3d 46 4e 87 bc 5d ed 22 3d 34 69 29 3f
       0.051675845 -0.016516816 0.03977715 0.6617615
0002a0 f2 60 69 bc ca be 48 3d 8d 05 11 bd 69 33 50 be
       -0.014244305 0.049010076 -0.035405684 -0.20332111
0002b0 e4 e5 5b bf 10 b9 a5 bc f9 6f 7c 3d 45 91 88 3d
       -0.8589766 -0.020229846 0.061630223 0.06668333
0002c0 3b f1 7a 3f 3c c0 9c 3d a6 ec b9 3d c1 57 b9 bd
       0.9802434 0.07653853 0.0907834 -0.09049941
0002d0 b6 2c ec bc 47 cf ac bd 20 6a 42 3d a0 14 be 3d
       -0.028829914 -0.084379725 0.04746449 0.09281278
0002e0 1f ce b2 be 22 bc 8b 3d 40 ac de bc f4 93 47 3e
       -0.34922883 0.06822993 -0.027181745 0.19490033
0002f0 0a c1 cc bb 44 3e 8b bd 42 51 f9 bc 59 3b 65 3d
       -0.006248598 -0.067989856 -0.030434255 0.0559648
000300 c8 b1 06 bf c4 cd d8 3d 4f c6 1f 3e 44 89 fc bd
       -0.5261502 0.10586122 0.15602992 -0.12330869
000310 35 fd 0a be a4 0f a6 bd 1e ac 1e 3e 50 36 52 3e
       -0.13573153 -0.08108452 0.15495345 0.20528531
000320 58 7d 06 be de 4f 9c 3d 3f 10 d0 bc db b0 b7 be
       -0.13133752 0.07632421 -0.025398372 -0.35877118
000330 6c 38 5a bf 79 ae 46 3d 6f 17 1a 3e 7f 7d dc bd
       -0.8524234 0.048506234 0.15048002 -0.10766124
000340 f0 96 dd 3e 6c c0 5d bb 4e 36 81 bd 49 ae 9a 3e
       0.4327922 -0.0033836616 -0.06309186 0.30211094
000350 70 da 37 be 8c b3 2a 3c 67 69 12 3e af 0f 0a 3d
       -0.17954421 0.010418784 0.1429802 0.033706363
000360 30 df 7c be 54 57 2c 3d 39 91 72 3d 9c 96 e3 3e
       -0.24694514 0.04207547 0.059220526 0.44450843
000370 45 98 40 3e 5f 5d 53 3d 7a a9 b5 bd f3 23 4d 3d
       0.18808086 0.051602717 -0.08870216 0.050083112
000380 79 66 3f bf 1a 8a 7e bd bb e6 0b bd b7 d9 e3 3c
       -0.74765736 -0.062143423 -0.03415559 0.027813775
000390 46 8e 07 3d 7d 81 cc 3c 74 21 83 3e 1f 26 cb 3e
       0.033094667 0.024964089 0.2561146 0.39677522
0003a0 ed f4 e3 bd c8 8c 21 bd 81 41 2c 3d 37 59 cc bd
       -0.111307 -0.0394409 0.042054657 -0.09977954
0003b0 80 58 45 bf 40 79 94 bd b9 4d d1 bd 36 40 a9 bd
       -0.77088165 -0.07249689 -0.102199025 -0.082642004
0003c0 04 ce 55 3f d4 5c 2b 3d db 25 9d bd a1 9c 1f 3e
       0.8351748 0.041836575 -0.07673236 0.15587093
0003d0 9d ca 97 be 38 d5 0f 3c 8d c3 b3 3d cd ab d5 3d
       -0.2964677 0.008778863 0.08777533 0.10433159
0003e0 2b c9 73 be 9e ee 2a 3d 2f e5 ce bd 4b 03 b7 3e
       -0.23807208 0.04173147 -0.10102307 0.357447
0003f0 b9 a0 d3 3d ea 3a 21 3d 62 48 42 bd 4b cd e7 bc
       0.1033339 0.039362825 -0.04743231 -0.028296134

sequential.mlp.0.bias f4 [16]
000000 4c 5b 74 3d 97 4a 0c be e0 4f 47 be 9f 70 21 3d
       0.05965738 -0.13700329 -0.19464064 0.039414044
000010 49 bc c0 bc 84 03 30 be ab 18 07 3e b0 0f fc bd
       -0.023527281 -0.17188841 0.13193004 -0.1230768
000020 ba d0 09 bf 13 b0 17 be 08 75 f4 bd ba 46 87 3d
       -0.53834116 -0.1481326 -0.119363844 0.06605287
000030 82 13 e4 bd 86 89 8f be 17 7d f6 3c 1a 51 85 3d
       -0.11136533 -0.2803461 0.030088944 0.065096095

sequential.mlp.3.weight f4 [16, 16]
000000 f7 95 70 3d 94 03 90 be db dc a4 3e fa 6f df 3d
       0.058736768 -0.2812773 0.3219975 0.1091003
000010 07 a7 58 3e 7f 76 7e 3e 51 27 9e 3d c0 41 ea 3d
       0.21157466 0.2484989 0.07722343 0.11438322
000020 0d 5a 51 be bd fb b7 3d 07 7f 3c be 48 b6 da 3d
       -0.20444508 0.08983562 -0.18407832 0.10679299
000030 ae 71 47 be 43 59 6b be ce 79 16 3e ee 55 93 3d
       -0.19476959 -0.2298327 0.14694902 0.07194124
000040 91 e8 ec 3d 99 b3 9b be 25 75 99 3e af 8e 02 3e
       0.11567796 -0.3041046 0.29972187 0.12749742
000050 54 31 2e 3e 51 2a 5a 3e ff 48 de 3d 10 9c 7a 3e
       0.17011005 0.21305205 0.10853767 0.24473596
000060 54 3a 17 be 22 a7 6a 3e 90 d8 7d be 11 48 0e 3e
       -0.14768344 0.22915319 -0.24789643 0.13894679
000070 79 97 68 be 52 49 28 be 56 12 1d 3e 97 3f 67 3c
       -0.22714032 -0.1643422 0.15339026 0.014114282
000080 89 54 7e bb 0c 6c 0c be 95 cb b5 3e 6b 14 03 3e
       -0.003880771 -0.13713092 0.35506883 0.12800758
000090 b5 5a f8 3d b1 7c cc 3e e6 cb 13 3e 1c 6e 36 3e
       0.12126676 0.39938882 0.1443325 0.17815441
0000a0 82 05 0e be ae b3 5b 3e a0 46 7e be a5 67 45 3d
       -0.13869289 0.21455261 -0.24831629 0.048194546
0000b0 a5 a6 4f be d8 00 01 be 21 44 3e 3e c6 db 1b bd
       -0.20278414 -0.12597978 0.18580677 -0.03805139
0000c0 50 7b 8b 3c e4 a3 84 be e4 a7 1b 3e 10 53 3e 3d
       0.017026573 -0.2590629 0.15200764 0.046465933
0000d0 54 9e 37 3e 1c 62 91 3e f2 91 36 3e 59 04 82 3e
       0.17931491 0.28395164 0.17829111 0.25393942
0000e0 99 14 82 be 68 b9 0c 3e 62 ab 5f be c1 92 b4 3d
       -0.2540634 0.13742602 -0.21842721 0.088170536
0000f0 c5 cc b2 be 58 05 9b be d1 9b 62 3e e5 6e 39 3e
       -0.34921852 -0.30277514 0.22129752 0.18108709
000100 fd 58 b8 3b 02 ac e9 bd ec c1 8c 3e 84 a2 9a 3d
       0.0056258426 -0.11409761 0.274917 0.07550529
000110 48 42 20 3e f7 94 c7 3e ce 2a 86 3d 46 cb 4d 3e
       0.15650284 0.3898084 0.06551133 0.20097074
000120 8f 13 52 be d7 bb 1b 3e 7a 7c 8d be 5d 72 12 3e
       -0.20515274 0.15208374 -0.2763403 0.14301439
000130 a3 70 9f be cc e7 82 be 0c 45 66 3e 72 e0 0e 3e
       -0.31140622 -0.25567472 0.22487277 0.13952807
000140 b8 92 01 3d 59 97 84 be 1e e9 22 3e a0 e1 17 3e
       0.031634063 -0.2589672 0.1590924 0.14832163
000150 00 07 15 3e 8f 3a 51 3e 4e fb db 3d f4 a9 88 3e
       0.14553452 0.20432495 0.10741292 0.26692164
000160 cd 8c 5e be 9c 82 91 3d 54 63 8a be 4e e7 15 3e
       -0.21733399 0.0710499 -0.27028906 0.14639017
000170 27 46 33 be 4a ee 31 be 88 21 16 3e 31 07 ea 3d
       -0.1750723 -0.17376056 0.14661229 0.11427153
000180 5d 78 47 3d 5e 69 50 be 4c 8a 71 3e 87 0c 9f 3d
       0.04869877 -0.20352694 0.23587912 0.07766061
000190 14 62 36 3e e3 24 b5 3e cd c4 e4 3d 16 84 5b 3e
       0.17810851 0.35379705 0.11170349 0.21437106
0001a0 79 16 6c be e3 0b 87 3e 52 b8 4d be 94 b3 d4 3d
       -0.23055448 0.26376256 -0.20089844 0.10385814
0001b0 92 0a 9b be e2 93 8d be 70 39 1f 3e 24 00 8d 3d
       -0.30281502 -0.27651888 0.15549254 0.068847924
0001c0 65 0d be 3d e3 3d 68 be 1b e3 47 3e 53 34 08 3e
       0.092798986 -0.22679858 0.19520228 0.1330121
0001d0 89 bc 99 3e 32 af 34 3e 57 ee c8 3d 7c 21 40 3e
       0.30026653 0.17644957 0.09811085 0.18762773
0001e0 4a cd 65 be 1e 8c 80 3e 5a 29 58 be 1c 46 aa 3d
       -0.22441593 0.251069 -0.21109524 0.083141536
0001f0 66 4a 43 be d9 a9 26 be dc fc a1 3e bc 5a cb 3d
       -0.1907135 -0.16275729 0.3163823 0.099294156
000200 ce 7c f5 3d ae db 61 be bd aa 08 3e 40 34 c7 3d
       0.11986695 -0.22056457 0.13346381 0.09726763
000210 c4 21 6a 3e a5 08 a8 3e 43 72 a3 3d 76 bf 70 3e
       0.22864443 0.32819095 0.07980778 0.23510537
000220 39 d1 59 be 4a 43 76 3e e1 6c 96 be 53 8a df 3d
       -0.21271218 0.24049106 -0.29379943 0.10915055
000230 33 57 78 be c4 3f 0b be a3 d0 cf 3d 40 4a ed 3c
       -0.24252014 -0.13598543 0.10147216 0.02896607
000240 47 af aa be 92 56 46 3e 73 5b ba bd 88 3a ad be
       -0.3333685 0.19368961 -0.09099474 -0.33833718
000250 f9 97 80 be 6d 97 00 be 32 d1 d0 be c4 5c 3e be
       -0.25115946 -0.12557764 -0.40784603 -0.18590075
000260 df 2d 15 3f 0a ff 3d be f2 b8 58 3e 51 0e 9d be
       0.5827312 -0.18554321 0.21164301 -0.30674985
000270 d9 ed 3b 3e 75 5c 93 3e 91 fe 9d be 70 29 8a be
       0.1835245 0.28781477 -0.3085828 -0.2698474
000280 20 d2 38 3d 5d 45 07 be d3 d1 2d 3e ad 81 03 3e
       0.045122266 -0.13210054 0.16974573 0.12842436
000290 81 a4 95 3d 77 23 a4 3e a0 57 bd 3c 68 3e 96 3e
       0.07306767 0.32058308 0.023113072 0.29344487
0002a0 b0 c5 32 be e4 5d 7a 3e 6b 5c 90 be 73 6e 18 3e
       -0.17458224 0.24449879 -0.2819551 0.14885883
0002b0 6a c9 67 be 17 d2 43 be f8 b0 c3 3d 7a f6 53 3d
       -0.22635427 -0.19123112 0.095552385 0.05174873
0002c0 7a c8 ff 3d 16 d7 b4 be 0e 1e 03 3e c6 53 8f 3d
       0.1248941 -0.35320348 0.12804434 0.069984004
0002d0 3c 87 2c 3e d6 c7 94 3e 94 15 3d 3d 46 e7 69 3e
       0.16848463 0.29058713 0.046163157 0.2284213
0002e0 dc 58 54 be 77 07 89 3e 11 c6 92 be f8 05 00 3d
       -0.20737022 0.26763508 -0.28666738 0.031255692
0002f0 11 e4 93 be df 74 a1 be 27 4c 3f 3e 07 e9 b3 3d
       -0.28884938 -0.31534478 0.18681394 0.08784681
000300 04 52 ed be 6c 12 25 3e 00 5e 02 be 8a 76 83 be
       -0.46351635 0.16120309 -0.1273117 -0.25676376
000310 5a 11 8e be 42 e5 56 bd 1e 4c db be 7d 9f 2b be
       -0.27747613 -0.05246473 -0.4283151 -0.16760059
000320 ad 23 15 3f c9 df 26 be 93 9e 88 3e 39 53 de be
       0.5825756 -0.16296305 0.26683483 -0.4342287
000330 11 92 4b 3e eb e8 8c 3e b7 45 8d bd b5 6e cd be
       0.19879939 0.27521452 -0.06898063 -0.40123525
000340 09 68 f6 3d 5e dc 86 be bf 20 47 3e cb 0d cb 3d
       0.12031562 -0.26340002 0.19446085 0.0991474
000350 a9 3a 1d 3e 41 fd 14 3e a4 0d bd 3d d3 cf 67 3e
       0.15354408 0.14549734 0.09231117 0.22637872
000360 03 e7 88 be 9b 35 ac 3d 9f 41 86 be 37 1b fb 3d
       -0.26738748 0.08408662 -0.2622194 0.1226105
000370 1e d3 a6 be 44 a3 96 be e0 fb 12 3e 2d 89 92 bc
       -0.32582945 -0.29421437 0.14353895 -0.017887676
000380 d7 05 22 3e 5e 8e 5a be dd 23 74 3e 68 b3 fc 3d
       0.1582254 -0.21343371 0.23841806 0.123389065
000390 99 45 29 3e ad 3a 75 3e 22 29 4d 3d 72 e1 17 3e
       0.16530456 0.23948164 0.050088055 0.14832094
0003a0 27 9a 26 be cd d6 f8 3d 66 69 46 be f7 50 36 3e
       -0.16269742 0.12150345 -0.19376144 0.17804323
0003b0 89 a7 a8 be ac 92 4e be de 01 92 3e ea 87 c4 3d
       -0.3294032 -0.20173138 0.2851705 0.09596236
0003c0 a1 83 f6 be 7d 6b 57 3e fa 00 07 be 6c ca bc be
       -0.481473 0.21037097 -0.13183966 -0.36873186
0003d0 89 8f 81 be 9a 2b e0 bd f5 be bc be 58 b0 9a be
       -0.2530482 -0.10945816 -0.3686444 -0.30212665
0003e0 e5 e4 14 3f d0 d0 8b be f9 da 4e 3e 59 d7 bd be
       0.58161765 -0.2730775 0.20200719 -0.3707836
0003f0 3e 25 70 3e 9f 22 99 3e d9 08 4a be 12 5e db be
       0.23451707 0.29909226 -0.19729938 -0.42845207

sequential.mlp.3.bias f4 [16]
000000 64 c6 a9 3d e6 51 d4 3d d6 7f 2a 3d db 8a 1c 3e
       0.08289793 0.103671834 0.04162582 0.15287344
000010 8c 7a 6f 3d 37 f2 e6 3d b2 37 98 3d 93 64 9f 3d
       0.05846648 0.112766676 0.07432498 0.07782855
000020 39 d7 b2 3d 6e 35 d2 3d 45 ae 99 3d a5 0f 0e 3e
       0.08732457 0.10264097 0.075039424 0.13873155
000030 4d b0 16 3d 63 cf eb 3d 8f 36 ac 3d 2f 04 a5 3d
       0.036789227 0.11514165 0.08408844 0.080574386

fc.weight f4 [1, 32]
000000 27 91 90 40 e7 ae d2 3d f5 71 bf 3d 18 d0 aa 40
       4.517719 0.10287266 0.093479075 5.337902
000010 55 31 77 40 49 77 1d 3e 0c 6c 88 40 cd 6c 87 c0
       3.862386 0.15377535 4.2631893 -4.2320313
000020 5a 7d c3 c0 4e db 73 bd cb dd e0 bd 5c 9f 7f 40
       -6.1090517 -0.059535317 -0.10979804 3.9941015
000030 a9 ba 16 c0 56 db a2 3c 7a 8d 0e 3c 77 2d 8e 3e
       -2.3551428 0.019879978 0.008700723 0.27769062
000040 19 84 00 3e 86 a9 23 3e 92 df f1 3d 80 40 3d 3e
       0.12550391 0.15982637 0.11810221 0.18481636
000050 85 7c 0c 3e 50 4a 0f 3e ab 5c 0f 3e 44 0b 31 3e
       0.13719375 0.13993192 0.14000194 0.17289454
000060 c8 c1 16 3e 81 ec be be ec d4 f1 3d 65 9a 2b 3e
       0.14722359 -0.37289813 0.1180819 0.16758116
000070 38 1f d6 be d8 5d ff 3d 38 ce 18 3e 58 dd d2 be
       -0.41820693 0.12469071 0.14922416 -0.41184497
