model_ncf.bin (torch, 645203 bytes, 6 tensors)

embedding.weight f4 [9992, 16]
0	0xbec685de	-0.38774008
1	0x3c39bc95	0.011336465
2	0xbbf251ee	-0.0073950207
3	0xbd05000d	-0.03247075
4	0x3f0b3eed	0.5439289
5	0xbdf677ce	-0.1203457
6	0x3e3a4610	0.18190789
7	0xbe5644c0	-0.20924664
8	0x3d7d0530	0.061772525
9	0x3db5b107	0.08871656
10	0xbdfd8129	-0.12378151
11	0xbef537f5	-0.47894254
12	0x3c4fed68	0.012690879
13	0x3eb418c9	0.3517516
14	0xbd08dac5	-0.03341176
15	0x3bb116bc	0.0054043215
16	0x3e3c6baa	0.18400446
17	0x3cf0f77d	0.029414887
18	0xbc5e4612	-0.013566511
19	0xbc90b1de	-0.017662939
20	0xbe2351f3	-0.1594923
21	0x3d688ea4	0.056776658
22	0x3bc50612	0.0060126865
23	0x3deb7e2d	0.114986755
24	0xbd456c63	-0.04819907
25	0xbd85f794	-0.065413624
26	0x3d0f7123	0.035020005
27	0xbea54eb3	-0.32286605
28	0xbec11b53	-0.3771616
29	0x3dc0e482	0.094185844
30	0x3c0795db	0.008275474
31	0xbeb095e0	-0.34489346
32	0x3eb04d7d	0.3443412
33	0xbd93355f	-0.07187914
34	0x3c434962	0.011919351
35	0x3e18e20c	0.1492998
36	0xbe7cfd6b	-0.24706046
37	0xbd4f21be	-0.05056929
38	0x3e6762ba	0.22596255
39	0xbc6f30d7	-0.014599047
40	0xbc764281	-0.015030504
41	0x3c5d2e6e	0.013499839
42	0x3dc23cf7	0.09484284
43	0xbe49b195	-0.19696648
44	0xbe221e74	-0.1583193
45	0x3e05a0a1	0.13049556
46	0xbe30d43a	-0.17268458
47	0xbdb9a1ea	-0.09064086
48	0x3e823a97	0.25435326
49	0xbe041327	-0.12897931
50	0x3d5bc82f	0.053657707
51	0x3dc28604	0.09498218
52	0xbe455572	-0.19270876
53	0xbd827a6a	-0.06371005
54	0x3e68ffe8	0.2275387
55	0xbdf57a77	-0.11986249
56	0x3d9fcd02	0.07802774
57	0x3d913fc1	0.07092238
58	0x3dfdcd8c	0.123927206
59	0x3d9f457c	0.07776925
60	0xbe20c56a	-0.15700307
61	0xbd8af592	-0.0678512
62	0x3da29413	0.07938399
63	0xbe0f7d1f	-0.14012574
64	0x3e2053aa	0.15656915
65	0xbd43780a	-0.0477219
66	0xbce6a943	-0.028156882
67	0xbc7909c2	-0.01520008
68	0xbe2997db	-0.16561835
69	0x3e3d78d4	0.18503124
70	0xbe6f17f4	-0.23348981
71	0x3d13ce48	0.036085397
72	0x3da1cd38	0.079004705
73	0xbd71c82f	-0.0590288
74	0x3d86f0eb	0.0658892
75	0x3dbcab44	0.09212354
76	0xbe769bca	-0.24082866
77	0xbe62bf0f	-0.22143196
78	0x3d16d517	0.036824312
79	0xbf1b04b0	-0.6055403
80	0xbcb46d4d	-0.022024775
81	0x3ce0bd6e	0.027434077
82	0x3d96d256	0.07364337
83	0x3c9b5659	0.018962072
84	0x3eb28810	0.34869432
85	0xbd7dcf0d	-0.061965037
86	0x3ebf9786	0.3742029
87	0xbcdd01ed	-0.026978457
88	0xbcbbd63b	-0.022929301
89	0xbda5b3ba	-0.08090921
90	0xbdd5a50c	-0.10431871
91	0x3d842c3f	0.06453752
92	0x3dbc5b1e	0.09197067
93	0xbdc3af2e	-0.09554897
94	0xbe69a824	-0.22818047
95	0xbdaf0d3e	-0.085474476
96	0x3e3d51b1	0.18488194
97	0x3e27fb5f	0.16404484
98	0x3d5c986b	0.053856295
99	0xbe31a314	-0.17347366
100	0xbde0617a	-0.10956092
101	0x3e2af24e	0.16693994
102	0x3eeb9d80	0.460186
103	0x3de98e4c	0.11404094
104	0x3cad2c54	0.021139301
105	0x3cf6090f	0.030033616
106	0xbe26958c	-0.16267985
107	0xbec3074c	-0.38091505
108	0x3d9269b2	0.07149066
109	0xbe5b9156	-0.2144216
110	0xbde88042	-0.11352588
111	0xbdb720e4	-0.0894182
112	0x3e8f1b7e	0.27950662
113	0x3d859d85	0.06524185
114	0xbcd694c1	-0.026193978
115	0xbbfd88c4	-0.007737251
116	0x3d995567	0.07486992
117	0xbc8076fd	-0.015681738
118	0x3dbcf5b4	0.09226552
119	0xbc7c360e	-0.015393747
120	0xbc8e2df4	-0.017355897
121	0x3c034c5c	0.008013811
122	0xbd9fa109	-0.07794387
123	0x3d87539e	0.066077456
124	0xbe224379	-0.15846051
125	0xbd3e4d60	-0.04646051
126	0xbe746df7	-0.23870073
127	0xbdd196dd	-0.10233853
128	0x3edb03ec	0.4277643
129	0x3dfc0413	0.123054646
130	0x3c1dfe0f	0.009643092
131	0x3d1c7384	0.0381961
132	0xbe6623f4	-0.22474653
133	0xbcb24380	-0.021760702
134	0x3d627013	0.055282664
135	0x3dca852d	0.098886825
136	0x3bd34521	0.00644745
137	0xbdbda93e	-0.09260796
138	0xbd9513d3	-0.07279172
139	0xbcbef00d	-0.023307825
140	0x3c83987e	0.016063925
141	0x3d5b4659	0.053533886
142	0xbe56226b	-0.20911567
143	0xbe309123	-0.17242865
144	0xbdb43f66	-0.08801155
145	0x3cb1fa79	0.02172588
146	0xbdbfbf49	-0.093626566
147	0xbd9115c0	-0.070842266
148	0xbd5bcf50	-0.053664505
149	0x3cdb5007	0.026771558
150	0x3f334ee5	0.7004226
151	0xbc31bcab	-0.010848205
152	0x3d071d1d	0.03298675
153	0x3cbc7f68	0.02300997
154	0xbd01fa11	-0.031732623
155	0xbd95e11f	-0.07318329
156	0x3dfdf9b1	0.124011405
157	0x3e3c3985	0.18381317
158	0xbe8bec8c	-0.27328908
159	0xbed2871c	-0.41118705
160	0xbdb8861e	-0.09009956
161	0xbd41d6df	-0.047324058
162	0x3b720bba	0.003693326
163	0x3d5b7432	0.05357761
164	0x3ea7cc12	0.3277288
165	0xbd504289	-0.050844703
166	0x3cb80f2b	0.02246817
167	0x3c980d3e	0.018561002
168	0xbdae4bd5	-0.085105576
169	0xbb8c5a89	-0.0042832536
170	0x3ca56e52	0.020194206
171	0xbed4c666	-0.41557616
172	0xbb67049a	-0.0035250545
173	0x3c1e1d88	0.0096505955
174	0x3e845f26	0.25853842
175	0xbf1d48eb	-0.6143939
176	0x3edfc61d	0.43705836
177	0xbd928764	-0.0715473
178	0xbc8c8568	-0.017153457
179	0x3c5ff76e	0.013669832
180	0xbe94ddaa	-0.29075366
181	0x3a958c59	0.0011409625
182	0xbdc4237c	-0.095770806
183	0xbd0705c4	-0.032964483
184	0xbcee8c2f	-0.02911958
185	0x3c6f4ff8	0.014606468
186	0x3da2f042	0.07955982
187	0x3c637791	0.013883487
188	0xbe11e10e	-0.14246008
189	0x3d159e47	0.0365279
190	0xbcf3024b	-0.02966418
191	0xbd1ec20d	-0.03875928
192	0x3da6ffe5	0.08154277
193	0x3dbd135a	0.09232207
194	0xbcf66812	-0.030078921
195	0xbdc5f4ca	-0.096658304
196	0x3e65fb6f	0.22459196
197	0x3e1a22bb	0.15052311
198	0xbd9a543d	-0.075355984
199	0x3dffe21b	0.12494298
200	0x3d8d69ac	0.06904921
201	0xbd5b10b5	-0.05348273
202	0xbced966b	-0.029002389
203	0xbdae7896	-0.08519094
204	0xbeccfde6	-0.4003746
205	0x3de51fed	0.1118773
206	0xbc11e8a4	-0.0089055635
207	0xbe2f975c	-0.17147583
208	0x3dd849d4	0.105609566
209	0x3bde6822	0.006787316
210	0x3c831e2e	0.016005602
211	0x3df17d7c	0.11791512
212	0x3e9abfc4	0.3022443
213	0xbd047473	-0.032337617
214	0x3db2b697	0.087262325
215	0x3d800bb0	0.06252229
216	0xbc7b4514	-0.015336294
217	0xbd0cca84	-0.03437282
218	0x3aa76eb2	0.0012774079
219	0x3e12f90d	0.14352818
220	0xbe2c4ec1	-0.16826917
221	0xbd67d4e3	-0.05659951
222	0x3e31f3db	0.1737818
223	0x3d92daf5	0.07170669
224	0x3f08611a	0.53273165
225	0x3d48a75e	0.04898774
226	0x3d82ed06	0.06392865
227	0xbbc68036	-0.0060577644
228	0xbdbf2534	-0.09333268
229	0xbbf1269f	-0.0073593403
230	0xbe499680	-0.19686317
231	0x3c8945cb	0.016756913
232	0xbb7f7003	-0.0038976676
233	0xbd1105f9	-0.035406087
234	0xbdad31e4	-0.084567815
235	0xbea45fe1	-0.321044
236	0xbe84f7f3	-0.2597042
237	0x3cf1388c	0.029445909
238	0x3dc66277	0.096867494
239	0xbd61874d	-0.055060674
240	0xbe60c419	-0.21949805
241	0x3db3a2ce	0.08771287
242	0x3c9dc2e5	0.019257972
243	0xbd907054	-0.07052675
244	0x3e958196	0.2920043
245	0x3dfec5bd	0.12440059
246	0x3e6deec4	0.23235613
247	0x3cb434bd	0.021997804
248	0x3c18ca6b	0.009325604
249	0x3df048f8	0.11732668
250	0xbcf3321b	-0.029686978
251	0xbd7909dd	-0.060800422
252	0xbe82dada	-0.25557595
253	0xbe73eb8a	-0.2382032
254	0xbe752611	-0.23940302
255	0x3c41aeed	0.011821491

sequential.mlp.0.weight f4 [16, 32]
0	0xbe35d6f8	-0.17757785
1	0xbbb3b9dd	-0.005484803
2	0x3d3ac290	0.045595706
3	0x3e748b34	0.23881227
4	0xbeca1418	-0.39468455
5	0xbe968d0e	-0.2940449
6	0x3f828866	1.0197875
7	0x3c1ebd68	0.009688713
8	0x3e0dce6b	0.13848273
9	0xbd4d7edf	-0.05016982
10	0xbdfaaf3a	-0.12240453
11	0x3e2a63f7	0.16639696
12	0x3e9a850a	0.30179626
13	0xbcd50967	-0.02600546
14	0x3e1106ad	0.14162703
15	0x3d813599	0.06309051
16	0xbeec1144	-0.46106923
17	0x3d1823e7	0.037143614
18	0x3cbdd5a8	0.023173168
19	0x3d9b8a60	0.07594752
20	0x3f2977d4	0.6619847
21	0xbca2317f	-0.019798992
22	0xbe1cd9d2	-0.15317467
23	0x3c0387e4	0.008028004
24	0x3d3a84e0	0.045536876
25	0xbd4aee33	-0.04954357
26	0xbdc05e31	-0.093929656
27	0x3c355c2c	0.011069339
28	0xbca1d53e	-0.019755002
29	0xbc855722	-0.0162769
30	0xbd7faf0d	-0.0624228
31	0x3e493554	0.1964925
32	0xbc4c9d93	-0.0124887405
33	0xbd0f562e	-0.034994297
34	0xbd3ef610	-0.046621382
35	0xbd2d8796	-0.042365633
36	0xbe64206a	-0.2227799
37	0x3d0469aa	0.03232733
38	0x3f7a0019	0.976564
39	0xbe01f901	-0.12692644
40	0xbbf67303	-0.0075210347
41	0x3d68a9bd	0.0568025
42	0x3cc36a67	0.023854448
43	0x3d6787c6	0.056525968
44	0x3e9401e6	0.28907698
45	0x3c41ade0	0.01182124
46	0x3e3342ce	0.17505953
47	0x3d1c8fbb	0.03822301
48	0xbeef8ab0	-0.46785498
49	0xbde72dab	-0.11288007
50	0x3dd904a0	0.10596585
51	0x3dc984c4	0.09839776
52	0x3f515778	0.8177409
53	0xbe4712e0	-0.19440794
54	0xbe02f054	-0.1278699
55	0xbcc52224	-0.024064131
56	0xbe15781d	-0.14596601
57	0xbd5d5939	-0.054040167
58	0x3dd0d71f	0.10197281
59	0x3d8a44bb	0.067513905
60	0xbd497707	-0.04918578
61	0xbd1128ed	-0.03543942
62	0x3d1a304c	0.037643716
63	0x3bafc2b6	0.0053637875
64	0xbd981865	-0.07426528
65	0xbe0946ed	-0.13405962
66	0xbc65d98b	-0.014028917
67	0x3d178432	0.036991306
68	0x3e515e68	0.2044617
69	0xbe0859d4	-0.13315517
70	0xbf0be81d	-0.5465105
71	0x3c8354a2	0.016031567
72	0xbc5d0171	-0.013489113
73	0x3cecce4b	0.028906962
74	0x3c71c919	0.014757418
75	0xbcfd344d	-0.030908728
76	0xbf222e1b	-0.633516
77	0xbe0d2732	-0.13784483
78	0x3e1ff238	0.15619743
79	0xbf0243c4	-0.5088465
80	0x3f79c006	0.9755863
81	0x3b881142	0.004152448
82	0xbe23b7fd	-0.15988155
83	0xbce20eff	-0.027595041
84	0xbf43461a	-0.7627884
85	0x3cc84cfa	0.024450768
86	0xbece54a7	-0.4029896
87	0x3da167a5	0.07881097
88	0xbd25b553	-0.040456127
89	0xbd96a190	-0.07355034
90	0xbb818ee3	-0.003953801
91	0x3deb6a35	0.11494867
92	0x3f41aca8	0.7565408
93	0xbe2f6a61	-0.17130424
94	0x3da07974	0.07835665
95	0x3e5276ea	0.20553175
96	0xbd88f625	-0.06687573
97	0x3e1279c4	0.14304262
98	0xbcb8f0ba	-0.022575725
99	0xbd449086	-0.04798939
100	0xbe5f0050	-0.21777463
101	0xbd5b9eae	-0.053618126
102	0x3f789d74	0.97115254
103	0x3dbe560b	0.09293755
104	0xbc8e3df5	-0.017363528
105	0xbdc17f48	-0.09448105
106	0xbd32f9d9	-0.043695305
107	0x3d7b64b4	0.061375335
108	0x3e397069	0.18109287
109	0xbbe30688	-0.006928269
110	0x3de150df	0.11001753
111	0xbd480b24	-0.04883875
112	0xbef2a32b	-0.47390112
113	0xbdf7940c	-0.120887846
114	0xbdc0fab8	-0.09422821
115	0xbdbe798d	-0.09300528
116	0x3f4c4b09	0.79801995
117	0x3e4961a2	0.1966615
118	0xbdf8369d	-0.12119792
119	0xbc834b6f	-0.01602718
120	0x3dbc3cf9	0.09191317
121	0x3ddb060d	0.106945135
122	0x3e39bf52	0.18139389
123	0xbd2e3bc7	-0.042537477
124	0xbc6df6c5	-0.0145241665
125	0x3dbf417b	0.09338661
126	0x3ddab2ae	0.10678612
127	0x3e13215e	0.14368197
128	0x3d9967bf	0.07490491
129	0x3cdb28af	0.026752798
130	0x3d9e1dc4	0.07720521
131	0x3dcc755e	0.099833235
132	0xbe9d8bc5	-0.30770698
133	0xbd9d9712	-0.0769483
134	0x3f701242	0.9377786
135	0xbd4b42d8	-0.049624294
136	0xbdc05c55	-0.09392611
137	0xbc1f26a7	-0.009713805
138	0xbdb4231f	-0.08795761
139	0xbc69634e	-0.0142448675
140	0x3e4871dc	0.19574684
141	0x3e047c26	0.12937984
142	0xbdc0ab8e	-0.094077215
143	0x3e9b1841	0.30291942
144	0xbf269854	-0.65076184
145	0xbd835a15	-0.06413666
146	0x3d942b6b	0.07234844
147	0x3c328135	0.010895063
148	0x3f3415f7	0.70346016
149	0xbdb0b7bf	-0.08628797
150	0xbda5ce47	-0.08095985
151	0xbd8e27b1	-0.06941164
152	0x3c20b715	0.009809275
153	0xbc1bc8a5	-0.009508287
154	0xbcad3c7b	-0.021147003
155	0xbda4c382	-0.08045103
156	0xbdba72dd	-0.0910394
157	0x3dbddaa2	0.092702165
158	0x3d0fc7f4	0.0351028
159	0x3de39d3f	0.11113977
160	0x3d96a614	0.07355896
161	0xbde603b9	-0.11231179
162	0x3db4b30e	0.088232145
163	0xbd4f6ac3	-0.050638925
164	0xbeae92c3	-0.34096345
165	0xbc138430	-0.009003684
166	0x3fa5d088	1.2954264
167	0xbe11491a	-0.14188042
168	0x3dca486e	0.09877096
169	0x3dad137b	0.08450981
170	0xbc94a1bb	-0.018143525
171	0x3e3514e8	0.17683756
172	0xbd50146a	-0.05080072
173	0xbe1647e7	-0.14675866
174	0x3e3463e3	0.17616229
175	0xbebe5239	-0.37172106
176	0xbe9a6a5f	-0.3015928
177	0xbdae7842	-0.08519031
178	0xbd1a66b3	-0.037695598
179	0x3d641fc9	0.055694375
180	0x3f3c0a43	0.7345316
181	0xbdd525c9	-0.104075976
182	0xbefcde3f	-0.4938831
183	0x3d78c56f	0.060735162
184	0xbe8239e9	-0.25434807
185	0xbddc7f5c	-0.107664794
186	0x3daba4e1	0.083810575
187	0x3e20e5c8	0.15712655
188	0x3dbb4d67	0.09145623
189	0xbd38e785	-0.04514267
190	0x3e22b1ab	0.15888087
191	0x3df6f9ae	0.12059341
192	0x3d5dd3dd	0.054157127
193	0xbd0813ac	-0.033221886
194	0x3d0159ea	0.03157989
195	0xbd623650	-0.055227578
196	0xbebbfcc5	-0.36716285
197	0xbd95bd64	-0.07311514
198	0x3fac85c3	1.3478321
199	0x3e27ecdb	0.16398947
200	0x3d6f8dbd	0.05848478
201	0xbd8c5858	-0.06852788
202	0xbd17842b	-0.03699128
203	0x3dd1e910	0.10249531
204	0xbcaeeb59	-0.021352457
205	0xbc7cc1ff	-0.015427112
206	0x3d5f212b	0.05447499
207	0xbe5b1981	-0.21396448
208	0xbeb5ab15	-0.35482088
209	0x3d31e51c	0.043431386
210	0xbda49d11	-0.080377705
211	0x3e155c2e	0.14585945
212	0x3f5ddc46	0.86664236
213	0xbd9dcbb0	-0.07704866
214	0xbec3f138	-0.38269973
215	0xbc2bda35	-0.010489036
216	0xbe2e9491	-0.17048861
217	0x3caa2caa	0.02077325
218	0xbd8fe689	-0.07026393
219	0xbb3ba6f2	-0.0028633443
220	0x3e28424b	0.16431539
221	0xbda4bcf7	-0.08043855
222	0xbcec2bf9	-0.028829562
223	0x3dca5716	0.098798916
224	0xbd182a97	-0.03714999
225	0xbd2b4928	-0.041817814
226	0xbcf5a190	-0.029984266
227	0x3c9eba3c	0.019375913
228	0xbf2145d3	-0.6299717
229	0xbd7458c9	-0.059654985
230	0x3f58784b	0.8455855
231	0xbc62c585	-0.013841038
232	0x3dc4c946	0.09608702
233	0x3d0f7826	0.03502669
234	0x3d093c62	0.03350485
235	0x3dd081f2	0.10181035
236	0x3ea87f7c	0.32909763
237	0x3df0fbe5	0.11766795
238	0x3d57ade1	0.05265606
239	0xbcfc25ed	-0.030779803
240	0xbee198eb	-0.4406198
241	0xbddc5b9f	-0.10759663
242	0xbd9d2254	-0.07672563
243	0x3d8893e2	0.066688314
244	0x3f6352de	0.8879832
245	0xbde47a68	-0.1115616
246	0xbdf981a4	-0.1218293
247	0x3c187313	0.00930478
248	0x3dbc6498	0.09198874
249	0xbd864f52	-0.06558098
250	0x3cbb26f6	0.022845726
251	0x3cfe88ac	0.03107103
252	0x3e0135f7	0.12618242
253	0xbe345360	-0.1760993
254	0xbd94b95b	-0.07261916
255	0x3e03d294	0.12873298

sequential.mlp.0.bias f4 [16]
0	0xbde516e0	-0.11186004
1	0x3c82b911	0.015957387
2	0xbec2274a	-0.379206
3	0x3e0408f6	0.12894043
4	0x3d902624	0.07038525
5	0xbea12813	-0.31475887
6	0xbe93c726	-0.28862876
7	0x3d8c93ca	0.06864126
8	0xbdffcaed	-0.12489877
9	0xbe86d3aa	-0.26333362
10	0xbd337db3	-0.043821048
11	0x3d30818f	0.043092307
12	0xbe95b72e	-0.29241318
13	0xbe84be8d	-0.2592663
14	0xbe38dda4	-0.18053299
15	0xbf018616	-0.50595224

sequential.mlp.3.weight f4 [16, 16]
0	0x3e048672	0.12941912
1	0x3dbe3882	0.09288122
2	0xbe065587	-0.13118564
3	0xbc6473f5	-0.013943662
4	0x3dccd985	0.10002426
5	0x3eaacaf0	0.33357954
6	0x3e9a7335	0.3016602
7	0x3c8f54aa	0.017496426
8	0xbe6d55a9	-0.23177208
9	0x3ec1c97c	0.37849033
10	0x3e431c4e	0.19053766
11	0x3e41d5b1	0.18929173
12	0x3eb4a042	0.35278517
13	0xbe1ece3e	-0.15508363
14	0xbe32d5e6	-0.17464408
15	0xbd10bb53	-0.035334896
16	0x3df93369	0.12168009
17	0x3dfdb3be	0.12387799
18	0xbe4a84bb	-0.19777195
19	0x3d97432a	0.073858574
20	0x3d826c22	0.06368281
21	0x3e7c2987	0.24625216
22	0x3e33f1c3	0.17572694
23	0x3e071728	0.13192427
24	0xbe3dcc65	-0.18535002
25	0x3e736e5a	0.23772565
26	0x3d5d98f3	0.054100942
27	0x3e1d9e1e	0.15392348
28	0x3ea358ee	0.31903785
29	0xbe898e66	-0.26866454
30	0xbe9d5cad	-0.30734769
31	0xbdaa135a	-0.08304472
32	0xbe948a19	-0.2901161
33	0xbe5163e6	-0.20448264
34	0x3ef8d9d5	0.48603693
35	0xbe742c20	-0.23844957
36	0xbeea190a	-0.45722228
37	0xbe61fd72	-0.22069338
38	0xbe0def9a	-0.13860932
39	0xbe7b3d5c	-0.24535125
40	0x3e848d60	0.2588911
41	0xbe648cf1	-0.2231939
42	0xbeba2384	-0.3635522
43	0xbe93a37b	-0.28835663
44	0xbe4d1326	-0.20026836
45	0x3e9ea507	0.3098528
46	0x3e807c99	0.2509506
47	0x3ef5c4f4	0.48001826
48	0x3e3ee516	0.18642077
49	0x3dce06e6	0.100599095
50	0xbd84243c	-0.06452224
51	0xbb893786	-0.004187527
52	0x3df7a7e5	0.1209257
53	0x3eb7a9f1	0.35871843
54	0x3ebaf402	0.36514288
55	0x3e0914cd	0.13386841
56	0xbe286d3e	-0.16447923
57	0x3ea9856b	0.33109602
58	0x3c18459d	0.009293941
59	0x3daecbeb	0.08534988
60	0x3e167497	0.14692913
61	0xbe1fe5c0	-0.15614986
62	0xbde5c522	-0.11219241
63	0xbd9f789c	-0.07786676
64	0x3e278b7d	0.16361804
65	0x3d95569d	0.07291911
66	0xbe1b5cff	-0.15172194
67	0x3e10dea3	0.14147429
68	0xbc9c05f4	-0.019045807
69	0x3e6b33f7	0.22969042
70	0x3e49e5b2	0.19716528
71	0x3df6fbe5	0.12059764
72	0xbe13a8d7	-0.14419876
73	0x3e80aeae	0.2513327
74	0x3e479846	0.19491681
75	0x3dc83c82	0.09777166
76	0x3e72f3ed	0.23725863
77	0xbe1f2d72	-0.1554468
78	0xbe6292b2	-0.22126272
79	0xbdd690bf	-0.10476827
80	0x3dbe69ed	0.092975475
81	0x3dfab22e	0.12241016
82	0xbe091d27	-0.13390027
83	0x3db086c2	0.08619453
84	0x3dec304a	0.11532648
85	0x3e5968d6	0.21231398
86	0x3eb7218c	0.35767782
87	0x3e2ad3ae	0.16682312
88	0xbe40c20a	-0.1882402
89	0x3eb9cf53	0.36290988
90	0x3e5f1f8f	0.21789382
91	0x3e0488cb	0.12942807
92	0x3ea0b59f	0.31388566
93	0xbe4534b8	-0.19258392
94	0xbe35fbb0	-0.17771792
95	0xbdeb2402	-0.11481477
96	0x3e5d4a05	0.21610267
97	0x3ce8e0f7	0.028427584
98	0xbdef3333	-0.11679687
99	0x3dce7cc1	0.10082389
100	0x3da96c48	0.08272606
101	0x3ed19102	0.40930945
102	0x3e1dbe2f	0.1540458
103	0x3dcccd1b	0.10000058
104	0xbe42e201	-0.19031526
105	0x3e9ff645	0.31242576
106	0x3cbdf503	0.02318812
107	0x3e10d7b8	0.1414479
108	0x3eeaae29	0.45836
109	0xbe6148c2	-0.22000411
110	0xbe403cdb	-0.18773215
111	0xbda2bdce	-0.079463586
112	0xbe952d7a	-0.29136258
113	0xbe96eb8d	-0.29476586
114	0x3ef6ca41	0.48201182
115	0xbe75c503	-0.24000935
116	0xbe7d2541	-0.24721242
117	0xbe331d9a	-0.17491761
118	0xbdc9970e	-0.098432645
119	0xbed64429	-0.41848877
120	0x3e2aa2ee	0.16663715
121	0xbd906087	-0.07049661
122	0xbeb41d7e	-0.3517875
123	0xbeb3818e	-0.3505978
124	0xbe255006	-0.16143808
125	0x3e8f7cf6	0.28025025
126	0x3de5167f	0.111859314
127	0x3ef74cf7	0.48300907
128	0xbeab4d28	-0.33457303
129	0xbdf37a1b	-0.11888524
130	0x3ecc6438	0.3992021
131	0xbecff6ec	-0.40618074
132	0xbe5abee8	-0.21361887
133	0xbd290825	-0.041267533
134	0xbdf7f94d	-0.12108097
135	0xbf11dc24	-0.5697653
136	0x3e291e9a	0.1651558
137	0xbcfb9d3c	-0.030714624
138	0xbe5a91e9	-0.21344723
139	0xbec57508	-0.3856585
140	0xbe5e77f4	-0.21725446
141	0x3e5d3c46	0.21605024
142	0x3e743961	0.23850013
143	0x3f081c22	0.5316793
144	0x3e7ad46c	0.24495095
145	0x3e0bf8c6	0.13669118
146	0xbe1ecc38	-0.15507591
147	0x3db311dc	0.08743641
148	0x3d225911	0.03963572
149	0x3eb1a641	0.34697154
150	0x3ee75f5b	0.45189938
151	0x3e39ec20	0.18156481
152	0xbe1f428e	-0.15552732
153	0x3e917dd8	0.28416324
154	0x3e088d6d	0.133352
155	0x3df47448	0.119362414
156	0x3e728681	0.23684122
157	0xbe3e0596	-0.18556818
158	0xbdd583e9	-0.104255505
159	0xbdc52848	-0.09626824
160	0x3e40e05d	0.18835588
161	0x3e23df73	0.16003208
162	0xbe175806	-0.14779672
163	0x3d6d1512	0.057881422
164	0x3ddf96b1	0.10917414
165	0x3d90ca1d	0.070698
166	0x3e919bf9	0.2843931
167	0x3de75beb	0.11296829
168	0xbdf3834d	-0.11890278
169	0x3e926936	0.28595895
170	0x3e1febe2	0.15617326
171	0xbf5ef946	-0.8709911
172	0x3e696f69	0.22796406
173	0xbdcad529	-0.09903938
174	0xbe4450a4	-0.19171387
175	0xbdc286ea	-0.09498389
176	0x3e655182	0.22394374
177	0x3d868794	0.06568828
178	0xbe01865b	-0.12648909
179	0x3dfcabc5	0.1233745
180	0x3ca7676c	0.020435058
181	0x3e9a62cf	0.3015351
182	0x3e608591	0.21925952
183	0x3e68504c	0.22686881
184	0xbe4b52f0	-0.19855857
185	0x3e815279	0.25258234
186	0x3e2f16a2	0.17098477
187	0x3d34f855	0.04418214
188	0x3e56b9a2	0.20969251
189	0xbe3e501c	-0.18585247
190	0xbe3e54e8	-0.18587077
191	0xbd49f175	-0.049302537
192	0x3e40e163	0.18835978
193	0x3d85842e	0.06519352
194	0xbe397d14	-0.1811412
195	0xbb46a78f	-0.0030312275
196	0x3d9dfc1b	0.07714101
197	0x3e8f8a08	0.28034997
198	0x3e9eca47	0.310137
199	0x3e2ad304	0.16682059
200	0xbe9b276a	-0.30303508
201	0x3ea72c9e	0.32651228
202	0x3d7cbc4a	0.061703004
203	0x3e674cd9	0.22587909
204	0x3e90872f	0.28228137
205	0xbe8b2ef8	-0.27184272
206	0xbe973738	-0.29534316
207	0xbdf9917c	-0.12185952
208	0x3dd04a83	0.10170462
209	0x3d9900df	0.07470869
210	0xbe36a033	-0.17834549
211	0x3d472874	0.048622563
212	0x3dd6d668	0.104901135
213	0x3eb323ca	0.34988242
214	0x3ea61229	0.3243573
215	0x3e0a20d6	0.13489088
216	0xbe500b60	-0.20316839
217	0x3e93949b	0.28824314
218	0x3d7c0487	0.061527755
219	0x3dbe3566	0.09287529
220	0x3e84f750	0.25969934
221	0xbe2dba11	-0.1696551
222	0xbe4eb482	-0.20186046
223	0xbde31b4d	-0.110891916
224	0x3dec39a0	0.115344286
225	0x3e6097cc	0.21932906
226	0xbe01426c	-0.12622994
227	0x3d9307a8	0.07179195
228	0x3d73f31b	0.059558015
229	0x3e8d626f	0.2761416
230	0x3e8f5400	0.27993774
231	0x3e0c22f9	0.13685216
232	0xbe32869b	-0.1743416
233	0x3e8fef49	0.28112248
234	0x3dadbf48	0.0848375
235	0x3dfb5a5c	0.12273094
236	0x3ecf79f9	0.40522745
237	0xbe69e492	-0.22841099
238	0xbe5b899c	-0.21439213
239	0xbd85a2f7	-0.06525224
240	0xbe95daf4	-0.2926861
241	0xbe94394e	-0.2894997
242	0x3ec0f706	0.37688464
243	0xbedee1a0	-0.43531513
244	0xbeac8d95	-0.3370177
245	0xbe58eb88	-0.21183598
246	0xbe308999	-0.1723999
247	0xbecf5557	-0.40494797
248	0x3e4dc2d6	0.20093855
249	0xbe986b43	-0.29769334
250	0xbe86c94f	-0.2632546
251	0xbeb59d7a	-0.35471708
252	0xbe65ab1f	-0.22428559
253	0x3e9fc6f9	0.31206492
254	0x3e29f54a	0.16597477
255	0x3f172e66	0.59055173

sequential.mlp.3.bias f4 [16]
0	0xbc794b4d	-0.015215707
1	0x3d70a0a8	0.058746964
2	0x3d979d5d	0.074030615
3	0x3bb00709	0.0053719324
4	0x3d2e6e8b	0.04258589
5	0x3cd5744f	0.026056437
6	0x3ce3c129	0.027802067
7	0x3dbede8b	0.093197905
8	0x3dc135d6	0.094340965
9	0xbb8b5642	-0.004252226
10	0x3c1b8398	0.009491824
11	0x3b4c985e	0.0031218748
12	0x3d137e77	0.03600928
13	0x3cfa7dae	0.030577507
14	0x3d3c974c	0.046042725
15	0x3dc1e12b	0.094667755

fc.weight f4 [1, 32]
0	0xc0abfd23	-5.3746505
1	0xbe6db797	-0.23214565
2	0xbdd78081	-0.10522557
3	0xbdf4424a	-0.11926706
4	0x409f5915	4.9796243
5	0xbe736d5b	-0.23772185
6	0x404034fc	3.003234
7	0x3d3b8b74	0.04578729
8	0x3dc110ba	0.094270185
9	0xbd0469a2	-0.0323273
10	0xbe186154	-0.14880878
11	0x408a7132	4.326318
12	0xc07bbcef	-3.9334066
13	0xc08303ba	-4.094205
14	0x40843990	4.1320267
15	0xc0963042	-4.693391
16	0x3e1e1410	0.1543734
17	0x3ddae30b	0.10687836
18	0xbeec504d	-0.46155015
19	0x3df56154	0.119814545
20	0x3de05cc7	0.10955196
21	0x3e14013d	0.14453597
22	0x3e04235b	0.12904112
23	0xbee692bb	-0.4503382
24	0xbee58d7e	-0.44834512
25	0x3e29c456	0.16578802
26	0x3e744786	0.23855409
27	0x3df39b05	0.11894802
28	0x3e0d2fb9	0.13787736
29	0x3dd0a197	0.10187071
30	0x3e0ce6aa	0.13759866
31	0xbef7dbf9	-0.48410013
