model_ncf.bin (torch, 648562 bytes, 14 tensors)

embedding.weight f4 [9992, 16]
0.4220739 -0.2687729 0.67980635 0.7935947 -0.35795337 1.8261585 0.9042263 -0.50614816
-1.3631191 -0.009453201 -0.27818927 -0.25219384 0.860315 -0.0427958 0.33540022 0.19740278
-0.7902247 -0.124476336 -0.18315187 -0.10396116 -0.055304926 -0.12922658 0.4110609 -0.26918355
-0.2616345 0.040214702 0.38319552 0.3087964 -0.64707047 -0.27736872 0.5915402 1.3068836
-0.5465639 -0.09786563 -0.8400893 0.2424889 0.060090184 0.5479729 -0.5501792 -0.010921085
0.30568588 1.0672172 -0.48671654 0.005727724 0.38880107 0.34396237 1.7629734 -0.036602177
-0.36994073 -0.22844513 -0.06351254 -0.20217165 -0.50632614 0.62890947 -0.50271314 0.9452934
-0.95586425 0.13326782 0.13626567 0.72393435 -0.56573653 0.45513195 0.29118082 -0.63019186
-0.59470475 0.2699356 -0.7466442 -1.7446802 -0.12546471 1.0558174 -0.28928396 -0.11717041
0.59119254 0.21230663 0.7211614 0.21930058 -0.16619737 -0.5768938 0.78121066 0.5716179
-0.5674596 -0.21957244 -0.3812368 0.59226596 -0.42043617 1.5870118 0.5377183 0.06563675
-0.51146597 0.44232374 -0.9615537 -0.7782552 0.061687805 0.4857398 -0.06805014 -0.65924984
-0.3833765 -0.23760246 -0.18433568 0.07692666 0.30161765 0.5904889 -0.23845652 0.41506505
0.5227106 -0.94640857 -0.33985066 0.23827146 -1.1235056 0.36111355 0.48103955 -0.42886463
-0.4973335 0.5611007 0.08818008 0.16541468 0.45444745 -1.028732 0.5699067 0.017149348
-0.94034195 0.20589657 0.8252793 -0.07724351 -0.35488883 1.0414819 0.32649446 -0.8736514
-0.09179249 0.044291906 -0.3511061 -0.16969655 0.30662775 -0.5406784 -0.029922752 0.8580064
-0.10785999 0.65801436 -0.57305926 0.7513387 -0.29030514 -0.31735656 0.39098844 -0.2757819
-0.98280406 -0.7428465 0.028274648 0.16749832 1.9473516 0.45292577 0.079555176 -0.71101624
0.3278781 -0.39499393 0.11352605 0.8592708 0.41465637 0.06398043 -0.6189144 -0.7722421
0.09158898 0.48890218 0.24542585 0.51119554 -1.1011 0.94555587 0.79005784 -0.11427022
-1.6416949 0.028970882 -0.22897485 1.6771542 0.2276865 0.29310173 -0.5721892 0.14457428
-1.664559 0.5134962 0.67766 0.08208131 -0.06389623 -1.0750958 -0.63057613 1.2112197
0.38319883 -0.22968708 0.24486773 0.63477266 -1.5619229 0.30576095 -0.11602125 0.21455516
-0.004980817 0.60570437 1.304267 -0.6318492 -0.021859182 0.34896007 0.6289797 1.3495852
0.32738557 0.5167793 0.1505985 0.707535 0.62234133 -0.819195 1.6723964 0.019232647
1.0337559 -0.6545859 -0.78096116 -0.6804181 -0.604942 0.81434345 0.4908165 0.1274742
0.7705278 0.10244853 0.3697169 0.7142687 -1.121686 0.23415679 -0.6995394 0.9118985
-0.51868206 0.41312182 -1.2220027 -0.26633638 0.6466799 -0.5448377 0.73506856 1.6986436
0.3573928 -0.52050054 0.46765554 -0.4544237 -0.52107143 0.07131143 0.03662967 0.244731
0.91098934 -0.34214807 -0.045187294 1.058858 -0.6418188 0.12687616 0.65243155 1.5112412
1.4704022 0.33347055 0.42207634 -0.48581237 -0.6889922 0.1952457 0.08034536 -0.030296778
00000000: 121a d83e 9a9c 89be ca07 2e3f 0629 4b3f
00000010: aa45 b7be 90bf e93f 607b 673f ed92 01bf
00000020: b07a aebf 99e1 1abc d36e 8ebe 8d1f 81be
00000030: 9b3d 5c3f a64a 2fbd 94b9 ab3e f423 4a3e
00000040: 2a4c 4abf 73ed febd 2a8c 3bbe 97e9 d4bd
00000050: 6b87 62bd f953 04be 9376 d23e 6dd2 89be
00000060: f5f4 85be 2cb8 243d 3432 c43e 901a 9e3e
00000070: 69a6 25bf 4603 8ebe 2e6f 173f f647 a73f
00000080: 9deb 0bbf c76d c8bd 1810 57bf 034f 783e
00000090: 2021 763d f447 0c3f 8bd8 0cbf 5aee 32bc
000000a0: dc82 9c3e 939a 883f e932 f9be a2af bb3b
000000b0: ef10 c73e d61b b03e 1da9 e13f 2aec 15bd
000000c0: df68 bdbe 85ed 69be dd12 82bd 1606 4fbe
000000d0: 979e 01bf 3600 213f cfb1 00bf c0fe 713f
000000e0: 85b3 74bf 5c77 083e 3a89 0b3e c353 393f
000000f0: 1cd4 10bf 0e07 e93e a715 953e 4154 21bf
00000100: 923e 18bf 0035 8a3e 1324 3fbf ae51 dfbf
00000110: d279 00be 0625 873f 071d 94be 0af7 efbd
00000120: 6558 173f e966 593e 099e 383f 5590 603e
00000130: a52f 2abe 50af 13bf 6cfd 473f 8d55 123f
00000140: 0845 11bf 99d7 60be 7831 c3be be9e 173f
00000150: 6943 d7be 3423 cb3f e8a7 093f 8f6c 863d
00000160: 6fef 02bf 4278 e23e 6228 76bf bc3b 47bf
00000170: 5aac 7c3d e3b2 f83e df5d 8bbd 99c4 28bf
00000180: ed49 c4be 0f4e 73be 7ec2 3cbe ba8b 9d3d
00000190: a16d 9a3e 482a 173f f22d 74be 6883 d43e
000001a0: 5dd0 053f d547 72bf e800 aebe 6ffd 733e
000001b0: 08cf 8fbf e0e3 b83e d14a f63e 2594 dbbe
000001c0: 7fa2 febe 4ca4 0f3f c297 b43d 7762 293e
000001d0: 56ad e83e 7dad 83bf 68e5 113f ca7c 8c3c
000001e0: 40ba 70bf 8dd6 523e 8145 533f d831 9ebd
000001f0: fdb3 b5be 474f 853f 482a a73e 9ea7 5fbf
00000200: b3fd bbbd 6e6b 353d 2ec4 b3be efc4 2dbe
00000210: 50fe 9c3e e669 0abf 8f20 f5bc 4fa6 5b3f
00000220: b3e5 dcbd a173 283f 03b4 12bf bc57 403f
00000230: e0a2 94be 8f7c a2be a32f c83e 4933 8dbe
00000240: 0c99 7bbf 302b 3ebf 3ca0 e73c ae84 2b3e
00000250: d142 f93f e3e5 e73e d3ed a23d 2905 36bf
00000260: a3df a73e a53c cabe 5880 e83d 2cf9 5b3f
00000270: d74d d43e 2c08 833d 2d71 1ebf a9b1 45bf
00000280: 0193 bb3d 6351 fa3e ea50 7b3e b6dd 023f
00000290: d8f0 8cbf f30f 723f 3b41 4a3f 8106 eabd
000002a0: 0f23 d2bf 5854 ed3c 6278 6abe fdac d63f
000002b0: a626 693e 6e11 963e fe7a 12bf 480b 143e
000002c0: 4510 d5bf 7d74 033f 207b 2d3f 3f1a a83d
000002d0: 07dc 82bd bd9c 89bf 706d 21bf 3f09 9b3f
000002e0: a332 c43e 1733 6bbe 9bbe 7a3e 7680 223f
000002f0: 17ed c7bf b38c 9c3e 8d9c edbd 59b4 5b3e
00000300: 1f36 a3bb 710f 1b3f 39f2 a63f dfc0 21bf
00000310: 0712 b3bc e5aa b23e d004 213f 35bf ac3f
00000320: 159f a73e a64b 043f 7e36 1a3e 0421 353f
00000330: c351 1f3f c3b6 51bf 1611 d63f c98d 9d3c
00000340: 1d52 843f f192 27bf 12ed 47bf e12f 2ebf
00000350: 7bdd 1abf d078 503f 4d4c fb3e 9988 023e
00000360: 4f41 453f 89d0 d13d 894b bd3e 50da 363f
00000370: 6893 8fbf ccc6 6f3e 0415 33bf 2e72 693f
00000380: 59c8 04bf b484 d33e 966a 9cbf 3e5d 88be
00000390: d08c 253f 7c7a 0bbf 742d 3c3f 276d d93f
000003a0: 30fc b63e 863f 05bf 8c70 ef3e 39aa e8be
000003b0: f064 05bf ba0b 923d fe08 163d c39a 7a3e
000003c0: 9936 693f 082e afbe 5016 39bd a988 873f
000003d0: 3d4e 24bf d3eb 013e c105 273f 5a70 c13f
000003e0: 2436 bc3f a7bc aa3e 641a d83e 66bc f8be
000003f0: cb61 30bf 7dee 473e 1c8c a43d f330 f8bc

sequential.mlp.0.weight f4 [16, 32]
-0.010599322 -0.2233698 0.12557952 0.22519442 0.184422 0.043453455 -0.1789459 -0.12793794
-0.099233605 -0.29256287 -0.22087829 -0.27141666 -0.1844379 0.17540027 0.2282091 -0.24507059
0.25031707 0.063269794 0.2762803 0.20348302 -0.13584164 0.1889385 0.23379162 -0.23811455
0.2540467 -0.13915291 -0.122893296 -0.1334269 0.21304013 0.10065289 -0.22829048 0.114700474
-0.10286899 -0.22781296 0.130888 0.21248382 0.19520132 0.09120277 -0.19478858 -0.14739403
-0.041110847 -0.30401096 -0.2052231 -0.17400521 -0.16217789 0.17824225 0.15915081 -0.27957472
0.25150734 0.057346635 0.299673 0.18533003 -0.11139216 0.20880418 0.21624969 -0.29381728
0.28895065 -0.10085489 -0.14030074 -0.09563232 0.23380215 0.081076406 -0.23057033 0.07249041
0.33122635 -0.2350481 0.20754689 0.1374574 0.28584138 0.1652245 -0.23037685 0.21506391
-0.09568014 -0.08118554 -0.26114407 -0.16577213 -0.13540868 0.23069277 0.233073 -0.25367564
0.21415089 0.08952877 0.27267033 0.24040176 -0.097117774 0.24672526 0.1873959 -0.19845872
0.26323655 -0.09063313 -0.04462114 -0.103946716 0.1936154 0.050984032 -0.19800408 0.09825706
-0.057994556 -0.25163713 0.11673778 0.21271893 0.19235663 0.06946392 -0.20752159 -0.12268436
-0.09131686 -0.28314278 -0.20871598 -0.2195244 -0.19691545 0.20697157 0.16167253 -0.24370933
0.22911711 0.06937867 0.28444657 0.24190353 -0.12177839 0.21660708 0.23130766 -0.27907228
0.24731764 -0.12398645 -0.118135594 -0.16035786 0.23204395 0.109453894 -0.2726586 0.09079519
0.13039662 -0.2211159 0.16518062 0.17049955 0.29599082 0.15613765 -0.23064658 0.08168364
-0.053389113 -0.2101504 -0.29299694 -0.18450777 -0.1396708 0.18354474 0.18147561 -0.27066234
0.20314948 0.075074166 0.27764523 0.2072217 -0.11855596 0.2547514 0.20985027 -0.20436181
0.28569236 -0.10854038 -0.088598154 -0.16089019 0.2669813 0.09822521 -0.2285584 0.06746959
0.2074597 -0.23137115 0.18340467 0.15628433 0.3056741 0.10947008 -0.21296516 0.15013385
-0.079348974 -0.14555827 -0.24497557 -0.19603778 -0.058113456 0.18347715 0.24391286 -0.31079668
0.17627034 0.10133804 0.23064135 0.25500053 -0.04898221 0.22612627 0.21672067 -0.1650054
0.21030866 -0.14051344 -0.02292096 -0.15119572 0.21936204 0.035250124 -0.18109216 0.048541132
-0.08573634 -0.24150634 0.13773149 0.14206521 0.12667581 0.12820357 -0.20921111 -0.10428002
-0.09681705 -0.24295995 -0.20919499 -0.18704551 -0.1730339 0.20196562 0.20808503 -0.21189085
0.23146684 0.046452835 0.26860675 0.20433082 -0.11651938 0.24440649 0.22564384 -0.24230403
0.22527613 -0.092062175 -0.093885764 -0.12213906 0.21710347 0.09543082 -0.2600927 0.08241762
0.31518662 -0.22119547 0.168548 0.15238161 0.2816955 0.13554358 -0.23613474 0.22209783
-0.09708959 -0.095336646 -0.23675641 -0.14943984 -0.1424848 0.17027487 0.21746008 -0.26497555
0.2039373 0.053335115 0.21655324 0.2750378 -0.09832983 0.19676197 0.20032316 -0.20491047
0.27043808 -0.0791327 -0.041343372 -0.09422769 0.23646414 0.046899393 -0.18216419 0.06509726
00000000: c7a8 2dbc 0ebb 64be eb97 003e 5e99 663e
00000010: 1fd9 3c3e 40fc 313d 983d 37be 2a02 03be
00000020: fd3a cbbd cdca 95be eb2d 62be 20f7 8abe
00000030: 4add 3cbe 219c 333e a5af 693e c9f3 7abe
00000040: 8f29 803e 9893 813d 9d74 8d3e da5d 503e
00000050: 121a 0bbe 1879 413e 1267 6f3e 4dd4 73be
00000060: 6912 823e 1a7e 0ebe 7baf fbbd 10a1 08be
00000070: 3127 5a3e 1a23 ce3d fbc4 69be 15e8 ea3d
00000080: faac d2bd cd47 69be 8107 063e 5c95 593e
00000090: dbe2 473e 85c8 ba3d a876 47be 76ee 16be
000000a0: d963 28bd 53a7 9bbe 0126 52be 6c2e 32be
000000b0: f611 26be 2385 363e 6ef8 223e 6b24 8fbe
000000c0: 92c5 803e 4ee4 6a3d bd6e 993e 28c7 3d3e
000000d0: 9321 e4bd c3d0 553e 8f70 5d3e 386f 96be
000000e0: 57f1 933e 028d cebd ffaa 0fbe e1da c3bd
000000f0: d569 6f3e 630b a63d a11a 6cbe da75 943d
00000100: 8096 a93e 73b0 70be 2c87 543e a2c1 0c3e
00000110: cd59 923e 9c30 293e e9e7 6bbe b739 5c3e
00000120: f3f3 c3bd 9b44 a6bd adb4 85be 2bc0 29be
00000130: 93a8 0abe ba3a 6c3e b0aa 6e3e c6e1 81be
00000140: 5f4a 5b3e dc5a b73d 729b 8b3e e12b 763e
00000150: afe5 c6bd 8ca5 7c3e b6e4 3f3e c338 4bbe
00000160: f1c6 863e dd9d b9bd a8c4 36bd 04e2 d4bd
00000170: 1e43 463e a2d4 503d 95c1 4abe ff3a c93d
00000180: b38b 6dbd 95d6 80be 3814 ef3d fed2 593e
00000190: 23f9 443e 1a43 8e3d 8a80 54be f041 fbbd
000001a0: 5504 bbbd 17f8 90be a4b9 55be 01cb 60be
000001b0: 34a4 49be 5bf0 533e 7c8d 253e f08e 79be
000001c0: ad9d 6a3e 6716 8e3d fba2 913e 8fb5 773e
000001d0: f366 f9bd 3fce 5d3e eadb 6c3e 90e2 8ebe
000001e0: d640 7d3e 9cec fdbd 13f1 f1bd da34 24be
000001f0: ee9c 6d3e 5d29 e03d e899 8bbe d4f2 b93d
00000200: b186 053e 356c 62be 1c25 293e 6f97 2e3e
00000210: 1c8c 973e 8ce2 1f3e 9e2e 6cbe c149 a73d
00000220: 8bae 5abd ab31 57be b203 96be 9bef 3cbe
00000230: dd05 0fbe 27f3 3b3e bed4 393e 4194 8abe
00000240: 6b06 503e 7cc0 993d 8427 8e3e ed31 543e
00000250: 78cd f2bd c76e 823e fde2 563e 3944 51be
00000260: 4546 923e 6b4a debd f372 b5bd 66c0 24be
00000270: c6b1 883e 4d2a c93d 370b 6abe 7f2d 8a3d
00000280: 5170 543e 8fec 6cbe 6fce 3b3e 0009 203e
00000290: 5181 9c3e d931 e03d 8a13 5abe b0bc 193e
000002a0: b781 a2bd 3a0d 15be e0da 7abe 21be 48be
000002b0: 6008 6ebd 6fe1 3b3e 4bc4 793e be20 9fbe
000002c0: 3680 343e 518a cf3d 3f2d 6c3e 6e8f 823e
000002d0: 92a1 48bd a58d 673e 06ec 5d3e 2df7 28be
000002e0: 275b 573e c1e2 0fbe bdc4 bbbc 0dd3 1abe
000002f0: 71a0 603e 6f62 103d 3970 39be 11d3 463d
00000300: 8996 afbd 704d 77be 7c09 0d3e 8b79 113e
00000310: 4eb7 013e cc47 033e 703b 56be c390 d5bd
00000320: 0448 c6bd 7eca 78be 3637 56be dc88 3fbe
00000330: cc2f 31be 13d0 4e3e 3e14 553e eaf9 58be
00000340: a505 6d3e 5445 3e3d d386 893e 193c 513e
00000350: b6a1 eebd b245 7a3e 2e0f 673e 8c1e 78be
00000360: c9ae 663e 188b bcbd 2e47 c0bd 0b24 fabd
00000370: 5f50 5e3e 3c71 c33d df2a 85be 92ca a83d
00000380: 2460 a13e 1181 62be d997 2c3e ed09 1c3e
00000390: 643a 903e f0cb 0a3e 4ecd 71be 9d6d 633e
000003a0: e8d6 c6bd dc3f c3bd 4670 72be c206 19be
000003b0: 89e7 11be 895c 2e3e dbad 5e3e e0aa 87be
000003c0: f1d4 503e ec75 5a3d 22c0 5d3e c1d1 8c3e
000003d0: 2661 c9bd f87b 493e 8421 4d3e 0dd4 51be
000003e0: dc76 8a3e 5310 a2bd ab57 29bd 72fa c0bd
000003f0: a823 723e 9419 403d 4089 3abe b651 853d

sequential.mlp.0.bias f4 [16]
-7.1803406e-05 0.00031684665 3.7303696e-05 5.197601e-05 -6.492538e-05 -7.9619436e-05 -0.00016403465 -7.648929e-05
0.0001959374 6.799289e-05 -8.692034e-05 -3.8528713e-05 -0.00020427626 7.729364e-05 5.628376e-05 8.869829e-06
00000000: 2995 96b8 701e a639 8a76 1c38 d100 5a38
00000010: 8c28 88b8 5cf9 a6b8 b700 2cb9 e068 a0b8
00000020: 8c74 4d39 6897 8e38 0149 b6b8 e499 21b8
00000030: fe32 56b9 b518 a238 3a12 6c38 a0cf 1437

sequential.mlp.1.weight f4 [16]
0.75502455 0.7625717 0.9276498 0.69644886 1.1912631 0.909069 0.7059596 0.9372153
0.8856998 0.9076078 0.77408344 0.87315065 0.63453245 0.6882662 0.84374636 0.8408107
00000000: 4a49 413f e637 433f 757a 6d3f 794a 323f
00000010: 4f7b 983f bfb8 683f c5b9 343f 58ed 6f3f
00000020: 39bd 623f fc58 683f 552a 463f cd86 5f3f
00000030: b870 223f 3732 303f c3ff 573f 5f3f 573f

sequential.mlp.1.bias f4 [16]
0.34955296 0.39279357 -0.3464341 0.32470432 0.21861908 -0.08370684 0.34473246 -0.34965158
-0.74665743 0.038748242 0.32802516 -0.84466153 0.36862415 0.3368886 -0.78667253 -0.7400197
00000000: 9bf8 b23e 3d1c c93e cf5f b1be a53f a63e
00000010: aedd 5f3e 7e6e abbd c680 b03e 8805 b3be
00000020: f124 3fbf 7ab6 1e3d eaf2 a73e bd3b 58bf
00000030: 4ebc bc3e aa7c ac3e 5f63 49bf ee71 3dbf

sequential.mlp.1.running_mean f4 [16]
0.20152678 0.19408286 0.25247604 0.21894228 0.23865792 0.21620995 0.20346741 0.24093315
-0.18535948 0.2342663 0.17940678 -0.21180515 0.19639325 0.20704398 -0.20063494 -0.17008926
00000000: 095d 4e3e a8bd 463e 8a44 813e 6832 603e
00000010: be62 743e 2466 5d3e c359 503e 2eb7 763e
00000020: e0ce 3dbe 81e3 6f3e 69b6 373e 73e3 58be
00000030: 501b 493e 5603 543e 3f73 4dbe e12b 2ebe

sequential.mlp.1.running_var f4 [16]
0.9902257 0.9931036 0.94627434 1.0469822 1.0011446 0.85692763 0.9021965 0.87717223
0.9808886 0.9429819 0.9009355 1.0696307 0.96550614 1.0098367 1.011967 0.9108194
00000000: 6e7f 7d3f 0a3c 7e3f 093f 723f 8303 863f
00000010: 8225 803f 9c5f 5b3f 5af6 663f 5c8e 603f
00000020: 841b 7b3f 4367 713f b5a3 663f a9e9 883f
00000030: 692b 773f 5442 813f 2288 813f 762b 693f

sequential.mlp.4.weight f4 [16, 16]
0.15484253 0.098346695 0.33888724 0.102267094 0.3125199 0.26675892 0.1337376 0.41031706
-0.2809081 0.17843287 0.11200662 -0.26848823 0.08461547 0.096670225 -0.41708207 -0.3389685
0.111899056 0.07800852 0.44398227 0.12652642 0.18815969 0.19918217 0.121719606 0.34611598
-0.43821645 0.21357201 0.14321315 -0.36603314 0.10235241 0.106581464 -0.28061956 -0.31568873
-0.22387724 -0.16846424 -0.08932923 -0.2630041 -0.13372456 -0.15609692 -0.19142401 -0.063186884
0.16762896 -0.1889644 -0.27178097 0.22056143 -0.18979001 -0.21613948 0.2583902 0.22049347
0.060415037 0.108504325 0.28444573 0.08292656 0.18879774 0.1260799 0.115048036 0.2587147
-0.5267844 0.14137451 0.1439141 -0.44547513 0.10461135 0.029068146 -0.3759524 -0.44108394
-0.2097723 -0.21263812 -0.06696131 -0.23567022 -0.15186399 -0.13592885 -0.25410333 -0.094923526
0.19563755 -0.16005024 -0.23222947 0.21052414 -0.20868407 -0.18576874 0.21508151 0.2149948
-0.27552447 -0.19015901 -0.051327743 -0.34560558 -0.11592362 -0.11497024 -0.2989957 -0.06965816
0.18412681 -0.11009364 -0.26492372 0.22591908 -0.25155556 -0.29871854 0.24700834 0.20679373
0.111786924 0.10926187 0.37282413 0.13874708 0.22853182 0.19959167 0.09342652 0.32277855
-0.4161836 0.14269258 0.10973449 -0.33064112 0.09499808 0.12017305 -0.45646876 -0.422623
-0.24697137 -0.1944667 -0.06962043 -0.24589849 -0.13558945 -0.162409 -0.17147982 -0.077575535
0.16097772 -0.17167959 -0.20555241 0.23860689 -0.20332716 -0.20021456 0.22242112 0.19964752
0.084679075 0.04501053 0.28538623 0.06784566 0.119097136 0.16347149 0.09626905 0.24798892
-0.45785934 0.15884854 0.07617996 -0.4680791 0.09478981 0.076153845 -0.4438499 -0.429009
-0.24102725 -0.20162189 -0.080816515 -0.21916807 -0.14968017 -0.17637353 -0.22426073 -0.09154443
0.2343969 -0.16949949 -0.21972357 0.26400632 -0.15916488 -0.19276293 0.2817598 0.26084584
0.08049249 0.087505445 0.2112759 0.0641522 -0.74913174 0.13415635 0.07884693 0.23755416
-0.13918537 0.11712459 0.10020139 -0.12714463 0.06658556 0.068888925 -0.113516316 -0.14568482
0.065381534 0.115391314 0.27093726 0.1389007 0.20163193 0.17141256 0.12734045 0.4049494
-0.40285432 0.15013836 0.121106416 -0.52863765 0.14119548 0.09528903 -0.35533497 -0.3825683
0.094753504 0.11241774 0.32258472 0.113731734 0.21823435 0.26934832 0.09987101 0.34318084
-0.361324 0.2403437 0.11749721 -0.37327823 0.13961829 0.13221698 -0.37138766 -0.36356702
-0.26332995 -0.27316773 -0.020090299 -0.28799346 -0.12257169 -0.1067424 -0.31474483 -0.059187222
0.16785419 -0.13939665 -0.23020524 0.21627781 -0.22965188 -0.26339915 0.22050239 0.19812901
0.119022936 0.08214046 0.29392454 0.08459277 0.16788538 0.14670576 0.0977549 0.32389054
-0.36954135 0.120753996 0.05876447 -0.4210237 0.115521625 0.10616672 -0.38221958 -0.3964061
0.080115445 0.07468668 0.30487365 0.06752337 0.2022673 0.15395626 0.077930994 0.33258003
-0.36236882 0.12662171 0.09903195 -0.39748237 0.08736862 0.096047506 -0.5367919 -0.4139437
00000000: 0a8f 1e3e fe69 c93d a182 ad3e 6971 d13d
00000010: 9c02 a03e a094 883e 82f2 083e 1415 d23e
00000020: 30d3 8fbe 1bb7 363e ba63 e53d 4a77 89be
00000030: e04a ad3d 0afb c53d c88b d5be 478d adbe
00000040: 552b e53d eec2 9f3d a551 e33e 2490 013e
00000050: efac 403e 69f6 4b3e 2148 f93d 1d36 b13e
00000060: e85d e0be 9fb2 5a3e 78a6 123e b268 bbbe
00000070: 249e d13d 6247 da3d 5ead 8fbe f4a1 a1be
00000080: 1340 65be e481 2cbe 3ef2 b6bd 79a8 86be
00000090: 17ef 08be dfd7 1fbe a804 44be 2068 81bd
000000a0: eda6 2b3e e27f 41be e026 8bbe dbda 613e
000000b0: 5058 42be ab53 5dbe b84b 843e 0ac9 613e
000000c0: c275 773d 8437 de3d dfa2 913e 66d5 a93d
000000d0: 3254 413e 171b 013e 4e9e eb3d 4176 843e
000000e0: 58db 06bf 7bc4 103e 385e 133e 5115 e4be
000000f0: 7a3e d63d 5220 ee3c d57c c0be c1d5 e1be
00000100: 8dce 56be cfbd 59be 0323 89bd 8953 71be
00000110: 3c82 1bbe ef30 0bbe d519 82be 4467 c2bd
00000120: 3655 483e 36e4 23be 90cd 6dbe a493 573e
00000130: 47b1 55be 293a 3ebe 543e 5c3e 9927 5c3e
00000140: 8b11 8dbe 0bb9 42be 0a3d 52bd 37f3 b0be
00000150: 5d69 edbd 8475 ebbd f715 99be f0a8 8ebd
00000160: bd8b 3c3e c678 e1bd 15a4 87be 5557 673e
00000170: e4cb 80be a3f1 98be c1ef 7c3e bcc1 533e
00000180: 8bf0 e43d b0c4 df3d cee2 be3e b713 0e3e
00000190: 3f04 6a3e c261 4c3e 6756 bf3d 3b43 a53e
000001a0: 0416 d5be 011e 123e 7abc e03d cb49 a9be
000001b0: 5a8e c23d 4a1d f63d 46b6 e9be 0b62 d8be
000001c0: 10e6 7cbe 4722 47be 2895 8ebd d0cc 7bbe
000001d0: f6d7 0abe 8b4e 26be 6898 2fbe ecdf 9ebd
000001e0: 58d7 243e c6cc 2fbe 557c 52be 5d55 743e
000001f0: ff34 50be 0c05 4dbe 5dc2 633e 6670 4c3e
00000200: 396c ad3d f65c 383d 251e 923e aaf2 8a3d
00000210: 33e9 f33d 1265 273e b528 c53d cff0 7d3e
00000220: 8a6c eabe 31a9 223e 3d04 9c3d 10a8 efbe
00000230: 2921 c23d 8cf6 9b3d 4b40 e3be 11a7 dbbe
00000240: d9cf 76be f875 4ebe 2183 a5bd 986d 60be
00000250: c245 19be 439b 34be 9ba4 65be a57b bbbd
00000260: be05 703e 4691 2dbe 37ff 60be d62b 873e
00000270: 1efc 22be a563 45be d242 903e 968d 853e
00000280: 3fd9 a43d 0e36 b33d b658 583e 3b62 833d
00000290: 19c7 3fbf 4860 093e 807a a13d 6641 733e
000002a0: 9c86 0ebe 04df ef3d 6336 cd3d 3432 02be
000002b0: 035e 883d a315 8d3d 3e7b e8bd 672e 15be
000002c0: c1e6 853d 4852 ec3d 4ab8 8a3e fc3b 0e3e
000002d0: 9a78 4e3e c686 2f3e 8965 023e 8755 cf3e
000002e0: ec42 cebe dfbd 193e a406 f83d cc54 07bf
000002f0: 8c95 103e e526 c33d 77ee b5be fedf c3be
00000300: 200e c23d 463b e63d d329 a53e 2fec e83d
00000310: d378 5f3e 06e8 893e 2c89 cc3d 66b5 af3e
00000320: 76ff b8be a91c 763e 61a2 f03d 531e bfbe
00000330: 19f8 0e3e e363 073e 8626 bebe 7525 babe
00000340: 2fd3 86be a4dc 8bbe 6994 a4bc e173 93be
00000350: de06 fbbd c29b dabd 3c26 a1be 4d6e 72bd
00000360: f8e1 2b3e ffbd 0ebe ecba 6bbe ee77 5d3e
00000370: dd29 6bbe 41dc 86be 61cb 613e 55e2 4a3e
00000380: 4cc2 f33d 4239 a83d 477d 963e f93e ad3d
00000390: 25ea 2b3e 093a 163e b933 c83d fbd4 a53e
000003a0: 8634 bdbe df4d f73d 03b3 703d 6b90 d7be
000003b0: 9a96 ec3d f06d d93d 49b2 c3be bef5 cabe
000003c0: 9113 a43d 55f5 983d 6618 9c3e b149 8a3d
000003d0: 291f 4f3e b6a6 1d3e 499a 9f3d ee47 aa3e
000003e0: 6888 b9be 1fa9 013e 43d1 ca3d cf82 cbbe
000003f0: 52ee b23d 8eb4 c43d 326b 09bf 6ef0 d3be

sequential.mlp.4.bias f4 [16]
-1.8091943e-05 1.2038065e-05 -6.117124e-05 5.21426e-05 -0.0006372632 -0.000595728 5.8924044e-05 0.0002631385
7.285641e-05 3.862123e-05 0.00027774696 -1.7794539e-06 8.604797e-05 1.8228245e-06 8.8617606e-05 -1.6302089e-05
00000000: 27c4 97b7 18f7 4937 0f49 80b8 b1b3 5a38
00000010: 020e 27ba a12a 1cba 3625 7738 daf5 8939
00000020: 7dca 9838 3bfd 2138 919e 9139 92d5 eeb5
00000030: a774 b438 c6a7 f435 37d8 b938 78c0 88b7

sequential.mlp.5.weight f4 [16]
0.827004 0.8157709 1.1521796 0.8479996 1.1266258 1.1031401 0.8028005 1.1536083
0.8698991 1.1040946 0.98024654 0.8242674 0.8051657 1.1417484 0.8659284 0.79628
00000000: 89b6 533f 5dd6 503f 9f7a 933f 8016 593f
00000010: 4635 903f b233 8d3f 5584 4d3f 70a9 933f
00000020: b5b1 5e3f f952 8d3f 70f1 7a3f 3003 533f
00000030: 571f 4e3f d024 923f 7cad 5d3f 02d9 4b3f

sequential.mlp.5.bias f4 [16]
0.51437575 0.47783607 -0.5793446 0.38741302 -0.6033765 -0.61939466 0.44899848 -0.5524399
0.40923417 -0.52342504 -0.06250686 0.42169163 0.4975468 -0.64955175 0.44731283 0.40415365
00000000: 21ae 033f eea6 f43e ed4f 14bf 005b c63e
00000010: e276 1abf a690 1ebf 21e3 e53e b46c 0dbf
00000020: 2487 d13e 2fff 05bf 9903 80bd f7e7 d73e
00000030: 74be fe3e 0649 26bf 3006 e53e 3aed ce3e

sequential.mlp.5.running_mean f4 [16]
0.7836119 0.7015547 -0.9210232 0.49375218 -0.9327435 -1.0600554 0.65423363 -0.8999002
0.41402256 -0.8992416 -0.027320474 0.6373264 0.7312073 -1.0421574 0.5234934 0.49940872
00000000: ca9a 483f 1799 333f 2dc8 6bbf 16cd fc3e
00000010: 47c8 6ebf e5af 87bf db7b 273f dc5f 66bf
00000020: c4fa d33e b334 66bf 30cf dfbc d327 233f
00000030: 6730 3b3f 6a65 85bf aa03 063f 80b2 ff3e

sequential.mlp.5.running_var f4 [16]
1.8459212 1.6287123 1.657461 1.2417136 1.6668704 2.0536397 1.5964117 1.5611098
1.0601536 1.7036588 0.6036775 1.547866 1.7346932 1.9503846 1.1730511 1.2293572
00000000: 2547 ec3f a579 d03f af27 d43f 79f0 9e3f
00000010: 025c d53f d56e 0340 3857 cc3f 72d2 c73f
00000020: 1db3 873f 7e11 da3f 9c8a 1a3f 7920 c63f
00000030: 6d0a de3f 34a6 f93f 8a26 963f 945b 9d3f

fc.weight f4 [1, 32]
0.09853485 0.0096540125 0.0373584 -0.032140054 -0.015128501 -0.029976584 0.013835153 -0.08265909
-0.040371485 -0.01538227 0.046522677 0.03168723 -0.02450278 0.0046133096 -0.01798508 -0.023716923
0.10012045 0.121363364 -0.5121896 0.112212405 -0.5333954 -0.6066505 0.116411656 -0.47775865
0.12227243 -0.48780403 0.15086503 0.116106525 0.11073622 -0.5931652 0.11603811 0.13232665
00000000: a4cc c93d dd2b 1e3c 1f05 193d 4aa5 03bd
00000010: 88dd 77bc 7491 f5bc d6ac 623c 2b49 a9bd
00000020: 925c 25bd eb05 7cbc 908e 3e3d 78ca 013d
00000030: 0eba c8bc 3f2b 973b 7255 93bc fe49 c2bc
00000040: f30b cd3d 5b8d f83d dc1e 03bf 9ecf e53d
00000050: 9a8c 08bf 724d 1bbf 3c69 ee3d c89c f4be
00000060: f869 fa3d 73c1 f9be 5d7c 1a3e 42c9 ed3d
00000070: acc9 e23d add9 17bf 63a5 ed3d a380 073e
